training/output/gesture_model.tflite (tflite, 34772 bytes, 10 tensors)

sequential/conv2d/BiasAdd/ReadVariableOp/resource f4 [8]
00000000: 4a8a 3f3c 825b 853d 0997 5a3d 45f8 eb3d
00000010: 7888 b83c b4b8 61bb 5251 d83b 4b0f b93a
0.0116906855 0.06511594 0.053366695 0.11521963 0.02252601 -0.0034442367 0.006601491 0.0014118938

sequential/conv2d_1/BiasAdd/ReadVariableOp/resource f4 [16]
00000000: fee7 1a3c 91e0 343d f781 613d 2f3e ac3c
00000010: 01fe 403c e85c 64bc 58b1 80bc 1ad4 6b39
00000020: 76fa 72bc a9d1 703c 79dd 683c 53ef 7a3c
00000030: 1625 9a3d 8d61 363d c405 8c3c 1939 9c3c
0.009454725 0.044159476 0.055055585 0.021025745 0.011779309 -0.013938166 -0.015709564 0.0002249036
-0.014830222 0.014698424 0.014212959 0.015315848 0.07526605 0.044526625 0.017092593 0.019070195

sequential/conv2d_2/BiasAdd/ReadVariableOp/resource f4 [16]
00000000: 0be4 753c 4f3d fb3c 63f7 2e3d b665 9bbc
00000010: 786e 273d a222 043c 1a59 f73c 1edb bd3c
00000020: 77b0 8abc 3824 293c ddd0 653c efd2 5b3c
00000030: 7dbf 5abd 4019 2739 2988 363d 3407 cf3c
0.015007983 0.030668883 0.042716395 -0.018969398 0.040876836 0.008064898 0.030193854 0.023175772
-0.016929848 0.010323577 0.014026848 0.01341699 -0.053405274 0.00015935767 0.044563446 0.02527199

sequential/dense/BiasAdd/ReadVariableOp/resource f4 [16]
00000000: 2ed0 8ebb 3fd2 2bbc 5258 013d 8f08 d53a
00000010: a838 dc3c b261 653b aa53 c23c 9a9b 3c3c
00000020: 0000 0000 0e6d b8ba 0874 d43c bb85 58bb
00000030: dfb4 45bc ae9c c7b9 5800 913a d41e 93bb
-0.004358313 -0.010487138 0.03157837 0.0016253161 0.026882485 0.0035000858 0.023721535 0.011511708
0.0 -0.0014070587 0.025934234 -0.0033038694 -0.012067049 -0.00038072973 0.0011062725 -0.004489759

sequential/dense_1/BiasAdd/ReadVariableOp/resource f4 [7]
00000000: 1903 39bb 750c 51bc 709d 9cbc d118 a03c
00000010: 5602 903b 0334 23bc 90c3 a93c
-0.0028230606 -0.012759318 -0.01911804 0.019543083 0.0043948097 -0.009961131 0.020723134

sequential/dense/MatMul f4 [16, 256]
00000000: 6b59 bfbd 7fc7 b73d e4a8 cbbb f6c7 833d
00000010: 89ce 613d 97ae ed3d a1cb 16be 4c15 84bd
00000020: 4a2a c53c 68ba 98bc 75ba 94bd 2beb acbd
00000030: 1e08 023e 23da 183d f39f bebd 8b26 613d
00000040: a063 b3bd cd9d f73c 2a75 a0bd 3741 06be
00000050: 225a f43d 6b09 9bbd 8134 b2bd 3cf0 6dbc
00000060: a6cc 493d 4c28 143b 49f5 063e be5d be3c
00000070: 72b3 bc3d aaf2 b53d db6e b13d 3ca6 55bd
00000080: c1c7 a33c 73cc 98bd 3b90 f9bc b5bb 60bc
00000090: aee8 e73d eb1c 9fbd 3b30 96bd 5045 84bd
000000a0: 8ee3 913d 2182 cb3d ecca 37bd 1470 a6bc
000000b0: 34e8 033e 6429 c43c aa56 12be c3ba 5f3d
000000c0: 1167 13bd 0b52 74bd 4b31 b5bc d55e 81bd
000000d0: 60b1 f1bd 1418 903d 85ae d0bd 298b 9b3d
000000e0: 7acc 0bbe cfe8 133e 2c27 323b aa64 933d
000000f0: 10d0 85bd b084 02be f464 1d3e 65e0 983d
00000100: d150 e63d 0461 023e 8525 15bd 0bc8 993c
00000110: 7c22 9d3d 4b6e f63c b826 0d3e 23f5 bcbd
00000120: ea93 de3d 0b45 12be d570 ab3d adf7 313c
00000130: b3f5 0b3e 65f4 f8bd 2756 52bd c644 e33d
00000140: f99e b6bd d868 e43d b7a7 2abe 6b9f 9d3d
00000150: eb43 08be 57d4 10bd f0c9 cbbd bb8c 05be
00000160: 0551 a33d 5ffb e63d 8093 473d 077d 9b3d
00000170: a245 303d b8f2 29be 596c d83d 36ca e8bd
00000180: 0dbb bc3d 1e50 10bd 919a c3bd 5a6f 903b
00000190: 7670 33bd 1cf9 d6bc ed53 f1bd 3aef bd3d
000001a0: 1d29 87bd d757 103e 7336 9dbd b1a8 8cbd
000001b0: 02ec 313d ec68 d5bd bfa5 b13d 8dfa 8d3d
000001c0: 1c37 6abd 4e72 af3b 304c 793d fc0d a23d
000001d0: 5b03 cdbd e3e7 013d a46d 00be 00d0 a1bd
000001e0: 82f8 08bb 36e4 063d 95b5 27bb 91a3 10bc
000001f0: d1ef 12be 7ee2 053d 1b15 1cbe e5e1 2e3d
00000200: cf7a f83d 263c 01be 5bab 94bd cf79 03be
00000210: 4f61 dcbd 6518 15be 0ebb f23d 823f 97bd
00000220: 1506 663d 6ef7 01be 2ccd 733d 0034 c4bc
00000230: be45 dc3a 257a fbbb 2d61 f23d bfec ccbd
00000240: 3a7f 96bd 8a22 b13d 5f0f a0bd 011d 7abd
00000250: a464 0b3e a7c1 a33d b475 a5bc 8936 84bd
00000260: 0279 7dbd c02a c03d b2b2 163e 8edd b13d
00000270: a9c2 093e a4e5 a1bc 3740 f0bd 8b05 cabd
00000280: dfd2 03bd eb6d a6bd 7d92 b3bd b2ca c3bd
00000290: feb0 5fbd b4cd 8abd 7abe 67bd 4c09 82bd
000002a0: c335 b23d b002 793d 07e4 25bd d534 d8bd
000002b0: 8423 83bd ecbe 99bd eab8 01be b425 96bd
000002c0: d57b bd3d d559 fcbc f1ca eb3d 4aa7 2b3d
000002d0: e538 f0bd c155 1dbe a0e6 a13d df41 143d
000002e0: 216d d23d 5724 8abd 6b81 e3bd 5399 8bbd
000002f0: f983 1a3d 27ea 04be d495 10be 93ce ba3d
00000300: 528b 88bd 40f9 c3bd b994 a2bd dd08 c2bd
00000310: 88dc b5bd 3e94 c63d 0bbd 24bd c187 e43d
00000320: 6d01 08be 7042 b1bd a0fc a4bd 688b cabd
00000330: c845 7bbd db56 9d3d 9d8b 88bd 4e08 59bd
00000340: 32a5 f63d 2d32 89bc cc2b 12bd 572a e13c
00000350: 46ce dd3d 8cfd 593d 804d 9abc 12db 803b
00000360: 66b7 153e 3059 d4bd 8370 32bd 564e 333d
00000370: 9183 a9bd 3f4c f3bd 6532 033e f173 94bd
00000380: a04d ea3d 175a a33d f427 ffbc 57fe 103e
00000390: 917c d53d d9f8 bf3d 145a e6bd f60c 7bbc
000003a0: 3c6a b3bd d667 8bbd 9013 63bd 4b4b 9fbd
000003b0: 5e49 103e 6199 303d ab85 173d 99f6 b73d
000003c0: d1c1 dcbd 9285 8cbd ea5c 0fbe 0101 d8bd
000003d0: 8b4b 8abd c89a 083e a731 16bd d34e 07be
000003e0: dc76 ef3d dd1d 7b3c d316 cb3d 66f2 e23d
000003f0: 8226 8a3d 0823 253e 9be3 19bd 8e1e f2bb
-0.09343227 0.08973598 -0.0062152017 0.06434624 0.055128608 0.11605566 -0.14726116 -0.064493746
0.024068017 -0.018643573 -0.07262126 -0.08443292 0.12698409 0.037317406 -0.09307852 0.054968398
-0.08759236 0.030226612 -0.07834847 -0.13110815 0.11931254 -0.07570156 -0.087014206 -0.014522608
0.049267434 0.0022607027 0.13179506 0.02323806 0.09213914 0.08884175 0.08663722 -0.052160487
0.019992711 -0.074608706 -0.030464282 -0.013716628 0.11323677 -0.077691875 -0.07333418 -0.06458533
0.07123481 0.099369295 -0.044871256 -0.020317115 0.12881547 0.023945518 -0.14290872 0.05462147
-0.035986964 -0.059648555 -0.022118231 -0.06316916 -0.1180141 0.070358425 -0.10189537 0.07594902
-0.1365222 0.14444278 0.0027183993 0.071969345 -0.065338254 -0.12745929 0.15370542 0.07464675
0.11245883 0.12732321 -0.036412735 0.018772146 0.07672593 0.030081889 0.13784301 -0.092264436
0.10868056 -0.1428415 0.083711304 0.010862273 0.13667946 -0.121559896 -0.051351693 0.11097102
-0.089170404 0.1115281 -0.1666554 0.07696422 -0.13307159 -0.035358753 -0.09950626 -0.13041966
0.079744376 0.11278414 0.04872465 0.075922064 0.043035157 -0.16596496 0.10567541 -0.11366694
0.092153646 -0.035232656 -0.095509656 0.0044078054 -0.043808423 -0.026241831 -0.11783586 0.092741445
-0.065996386 0.14096008 -0.07676401 -0.06868113 0.043437965 -0.10420403 0.08674192 0.069325544
-0.057181463 0.0053542024 0.060863674 0.079128236 -0.10010406 0.031715285 -0.12541825 -0.07901001
-0.0020900075 0.032932483 -0.002559041 -0.00882806 -0.14349295 0.032686703 -0.15242426 0.0426959
0.12132799 -0.12620601 -0.07259246 -0.12839435 -0.10760748 -0.14560087 0.11852084 -0.0738516
0.056158144 -0.12692043 0.05952184 -0.023950577 0.0016805453 -0.007674473 0.11834941 -0.10006093
-0.07348485 0.08649166 -0.07815432 -0.061062817 0.1361261 0.07995921 -0.020197727 -0.06455714
-0.06188298 0.09383154 0.14716604 0.08684836 0.13453163 -0.019762821 -0.11730998 -0.098643385
-0.032183524 -0.08126434 -0.08768175 -0.095601454 -0.054612152 -0.06777516 -0.056578137 -0.063494295
0.087016605 0.06079358 -0.040500667 -0.10556952 -0.064032584 -0.075071186 -0.12668195 -0.0733141
0.09252135 -0.030804554 0.115133174 0.041907586 -0.11729602 -0.15364744 0.07905316 0.036195632
0.10274721 -0.067452125 -0.11108669 -0.06816354 0.037723515 -0.12979947 -0.14119655 0.09121432
-0.06667198 -0.09569025 -0.07938523 -0.09474347 -0.088799536 0.09696244 -0.040219348 0.111587055
-0.13281794 -0.0865525 -0.08055997 -0.09889871 -0.061345845 0.07682582 -0.06667254 -0.052986436
0.12043227 -0.016747558 -0.0356863 0.02748601 0.10830359 0.053220317 -0.018835783 0.003932365
0.14620742 -0.10368574 -0.04356433 0.04377588 -0.082770474 -0.11879777 0.12812193 -0.072486766
0.11440587 0.07976168 -0.03114698 0.14159523 0.1042415 0.09373636 -0.1124765 -0.015322914
-0.08760497 -0.068069145 -0.055438578 -0.07778033 0.14090487 0.043115024 0.03699271 0.08982582
-0.10779155 -0.06861414 -0.14000288 -0.105470665 -0.0675269 0.13340294 -0.036668446 -0.13213663
0.116925925 0.015326944 0.09916463 0.1108139 0.06745626 0.16126645 -0.037570577 -0.0073888963

sequential/dense_1/MatMul f4 [7, 16]
00000000: a8f0 d03e 1145 afbe 6c85 15bf c48b 4f3e
00000010: 509f c3be 311f 233d aecb babe 41f0 0d3f
00000020: d8c6 d53d efb8 93be 56f5 033f 90ad b73e
00000030: 2d80 cabe f23b 063d c301 f7bd bfc9 04bc
00000040: 0224 eabe 9882 b23e e2d8 b4be 36ae 593e
00000050: a64e 8f3e 23e1 bbbd 4332 93be 1cc7 d9be
00000060: 204a 9abc 24ab b83e 5e46 1f3e 8663 1a3f
00000070: 601f f93e 650d 18bd 3067 31be 18eb 88be
00000080: fb3b c0be 8a06 eebe 75aa a63e 6869 a33e
00000090: 65b1 07bf a2a9 663d 409c 123f d91d 15bc
000000a0: 0036 7bbc 763f 80bd 9c6e 8fbe 851b 9a3e
000000b0: d60e 483e 0b99 b6be afcf 4abc 370c 05bf
000000c0: 099a 9f3e e35d 92be 2a0b 1f3e 1eb2 0fbe
000000d0: 5032 07bf 42e0 36bd b020 c03d 52cf c5be
000000e0: 8ab7 c33e 9905 f73d 9f4f 343f 079b cd3e
000000f0: 8ff6 dbbe d065 8c3e 601f eebc 3ffd 1cbe
00000100: d850 01bf 0e9c cd3e 59d4 ee3d 8d69 efbe
00000110: 2fe9 f63e b1ae fc3c 5687 583e 96e0 88be
00000120: 5c05 043e 7d19 563d 7340 0a3c 1040 8b3e
00000130: a922 ddbe c5a9 6cbe 8859 1fbe 2f0a 36be
00000140: c9ae 013f 3934 5c3e f574 76be cc34 87be
00000150: 249e 0fbe 7919 66be 4a4d e5be 9533 89be
00000160: 5ca3 ebbd 7e3f 4f3d 9d5c f5be 4ec3 a73e
00000170: 8866 64be 7b18 d93e 3f11 a6be 5e0a 293f
00000180: 94c6 31be bacb fe3e e633 c4be 2402 d03e
00000190: b6fc 1cbe 5590 b8be ba30 123e 0ebc 9c3e
000001a0: 5ea3 d83e 98f6 6dbe 2def 9c3e 3a18 93be
000001b0: 05cb 0f3e 46da a63e e6d0 a8be 0cd7 b8bc
0.40808606 -0.3423238 -0.5840671 0.2026816 -0.38207483 0.03982467 -0.3648352 0.55444723
0.10438317 -0.2885203 0.5154623 0.35874605 -0.39550915 0.032772012 -0.12060883 -0.008104741
-0.45730597 0.3486526 -0.35321718 0.21257862 0.27989691 -0.09173801 -0.28749284 -0.4253472
-0.018834174 0.3606807 0.15554187 0.6030811 0.4865675 -0.03712215 -0.17324519 -0.26741862
-0.3754576 -0.46489364 0.32551923 0.31916356 -0.5300506 0.05631412 0.5726967 -0.0091013545
-0.015332699 -0.06262104 -0.28014076 0.3009912 0.1953691 -0.35663638 -0.012378617 -0.51971763
0.31172207 -0.28587255 0.15531603 -0.1403279 -0.52811146 -0.044647463 0.09381235 -0.38634735
0.38225967 0.120616145 0.7043399 0.4015734 -0.42961547 0.27421427 -0.029067695 -0.1533098
-0.5051398 0.40158123 0.11661596 -0.46760216 0.4822478 0.030845018 0.21145377 -0.26733845
0.1289267 0.0522704 0.008438217 0.27197313 -0.43190506 -0.23111637 -0.15561497 -0.17777322
0.50657326 0.21504296 -0.24068053 -0.26407468 -0.1402517 -0.22470655 -0.4478553 -0.26797166
-0.11505768 0.05059766 -0.4792222 0.32766193 -0.22304738 0.4240149 -0.32435033 0.66031444
-0.17360908 0.49764806 -0.38320845 0.40626633 -0.15330777 -0.36047617 0.142764 0.30612224
0.4231214 -0.232386 0.30651227 -0.2872942 0.1404229 0.32588404 -0.32971877 -0.02256348

sequential/conv2d/Conv2D f4 [8, 3, 3, 1]
00000000: 5e09 98be c521 48bf 5f02 4d3f 72a9 2c3d
00000010: 9202 c43e 475e 4dbf 9e7e 50be 9220 1fbf
00000020: 3e68 99be 77eb 05bf ae97 b1be 189d 74be
00000030: a6b8 2b3e a278 3fbf d868 693d e4eb 143f
00000040: cb25 32be 56c8 f03e 6308 b0be b6a9 033f
00000050: d57f 413f 1ddb a23e b63e 40bf 364a be3d
00000060: 2ce0 903e 0b4e 9cbd 3763 e9be 527f 683f
00000070: 51a7 0a3f 92a3 003f a224 82be 4e9f fa3e
00000080: 4021 363f b524 21be 69ee 4d3c 1c19 4a3f
00000090: 850d b13e d799 86be 9a79 373f 37cc 14be
000000a0: 0b9c 1c3d 14e0 f5be 3f97 563f 0f62 493f
000000b0: 504b 473f bcd3 eb3e bd5e 31be a035 cebe
000000c0: 4ee4 723d 7ee4 39bf 781a 1bbe 11a9 0d3e
000000d0: 0029 2cbf 9673 b43e 63ab b0bd 493d 0ebf
000000e0: fce6 67bd 9186 493f a0d4 afbe 9a4d c33e
000000f0: 6ba6 533f b20e 3dbf 87bd 26bf 5103 21bf
00000100: bb8f c3be 81f9 abbe cd79 363e 7803 47be
00000110: 9aff ba3e f798 d23e bee4 54be 1bfc 4abd
-0.29694647 -0.7817653 0.80081743 0.042153783 0.3828321 -0.8022198 -0.203608 -0.62159073
-0.29962343 -0.52312416 -0.34686035 -0.23888052 0.16769657 -0.74793446 0.056984752 0.5817244
-0.1739723 0.47027844 -0.343814 0.51430833 0.7558568 0.31807795 -0.7509569 0.09291498
0.2829603 -0.07632073 -0.45583507 0.90819275 0.54161555 0.5024959 -0.25418574 0.48949665
0.71144485 -0.15736659 0.012569048 0.78944564 0.34580627 -0.26289245 0.71669924 -0.14531027
0.03823475 -0.4802252 0.83824533 0.7866525 0.7784929 0.46059978 -0.17321296 -0.40275288
0.05929976 -0.72614276 -0.15146816 0.13834025 -0.6725006 0.35244435 -0.086264394 -0.55562264
-0.05661677 0.7872096 -0.34341908 0.38145143 0.8267581 -0.7385055 -0.65132946 -0.62895685
-0.38195595 -0.33588794 0.17819901 -0.19434917 0.36523134 0.41132328 -0.20790383 -0.049556833

sequential/conv2d_1/Conv2D f4 [16, 3, 3, 8]
00000000: 354a e43d 4332 2bbd cb36 82be 7781 4ebe
00000010: 875e 22be a4ed 38be ab65 2c3d bd9f 533e
00000020: 6cc9 4c3d 017b d9bd 441f 183c b838 c93d
00000030: ea16 2a3e 2c5a 8abe 4059 2cbd 9b89 e5bd
00000040: 9cdc 80bd 52aa 24be 7d14 7f3e a1d8 e0bd
00000050: 6d87 3dbd 8c56 58bd 281b 16be 98ca 833e
00000060: 175b 5cbd db3f 7dbd 78ef 633e b093 bd3d
00000070: c1e0 153e 60f3 013e 6e05 773e 2ba7 83be
00000080: 7eef 4fbe aa4a 533e e3dc 253e 6ad7 fabc
00000090: 0b1f 4a3e 6764 56be 8d2f 09be 406f d83d
000000a0: 82d6 26be 2599 a03e 55ee 323e 6a3f 5f3e
000000b0: 3865 843d 7d36 d83d 34b2 c73c ca68 313d
000000c0: a429 5d3e b869 42bc 457f efbb 2dd3 5c3b
000000d0: 7a27 66bd cc5b 21bd ce08 523e df0d 4bbb
000000e0: e7a4 853e 0ed1 5fbe a72c 683e 98ef ae3e
000000f0: 976a 26be 2505 67be 710a 0abe 61a9 053e
00000100: 3b16 933d 3f98 8a3d 7f81 733e 538e 4ebb
00000110: 6392 d53d 7c3f 16be aa2c 7e3d 57c7 2f3e
00000120: 4828 693e 05dc 3c3e d4b4 eb3d c587 963e
00000130: 4206 7e3e d4cc 233e 9de1 1dbd 059b 8b3d
00000140: 5882 bcbc e2e3 173e 6a68 67be 9fa0 3cbe
00000150: 069b 01be 7b5d d2bd 47ae cabd bb43 8dbd
00000160: efc2 4bbd 5730 4bbe c6ff 703e 041f 6ebd
00000170: 9df8 68be 9a8e 2c3d b230 913d e016 4dbe
00000180: 5f8a e3bd 03f8 eebd e13f 76bc b64e a63e
00000190: 3cae 22be 958e 3dbe 376d d13d ffbd 9ebc
000001a0: 5cae 843e a7f7 f83d a208 9a3e 0f10 a63e
000001b0: fff4 493e a6c5 d53c 3aa9 ff3d 4135 3fbe
000001c0: a03c 033e 4a93 623e 29bd e2bc 334a 4a3e
000001d0: cac3 ee3d ab00 453e f4e8 c43e ba2b 493e
000001e0: 44f2 873e 4864 5cbe 9501 943e 63e0 bf3e
000001f0: c7ed 84bd 43b5 13bd bd02 86bb 1467 143e
00000200: 6380 283e fc61 7f3e 33b1 ab3e e8f3 d93e
00000210: 2a9a 513e 0780 983e 7ddb 833e be2e db3c
00000220: cc97 55bd 7a6c 69bd 7633 373e 2bba 8c3e
00000230: 2309 fd3d b3b0 573e 2075 21be 0b40 573e
00000240: 55f5 84be 2216 fbbd 5fe8 393e 44e2 633e
00000250: 8108 993c 4e12 2bbd 659b 29be ba0f 563e
00000260: ac53 85bd 3d7a 0bbe 121d 513e 0a24 9e3e
00000270: 425c 723e 2b23 2ebd 1b35 9f3e 0389 79be
00000280: 7ce4 c0bd 4df8 64be af5b 84be bcfa d03d
00000290: f666 55be eb91 593e b4b5 87be 3703 aa3c
000002a0: 8e48 9d3e 7c76 603e 81a5 1e3e d8d0 183e
000002b0: 13b8 2bbe 1d08 0d3e cb43 593d 47d1 77be
000002c0: 6856 873d df62 80be 5c45 ed3d da95 05be
000002d0: 7037 7fbd f38e 24be d8d7 863e 1d84 3d3d
000002e0: 5564 ce3c 2fd5 213e 3735 17be ff75 85bd
000002f0: 2062 753e 14ac 963d 6099 8abe 4e0f 203e
00000300: 8cae 973e adae 643d 54ca 61be 3ee8 a23e
00000310: 6792 0b3d 94ef 50be 9c08 5cbe 6a24 c93d
00000320: 090d 89be 7925 87bd cb72 48be 460b 8abe
00000330: 2671 ecbd 2b8f 22be b812 823c 93fa 6fbe
00000340: ef84 683e a68f 413e fb71 8ebe 232d a4bd
00000350: 49c2 31be 05ae 833e af24 ba3d 8b8c 0b3e
00000360: ddd7 e2bd 1bff bf3d 550c 6bbe cc88 493e
00000370: d245 963e 23a9 27be f7da 803e e960 5e3e
00000380: 4783 6639 52cf 15be a81d 413d 193a 323c
00000390: 7bc2 173e 502b 7cbe 596f 4dbe 3140 35be
000003a0: 7c50 21be d7bc 983e 9c24 923e 0130 813e
000003b0: f656 c13d 0a1a 243d f4ce b13e 7e6b 873e
000003c0: b5a9 3cbe 2791 373e 0800 813e 8b20 e43d
000003d0: 69c6 7bbe b78e 813c d6e5 ab3d 0f71 253e
000003e0: 97af eb3b 2d27 ebbd 3341 0abe e089 a6bd
000003f0: a4d3 4f3e b985 1e3e 6633 7cbe 6f25 15bc
0.11146966 -0.04179598 -0.2543243 -0.20166574 -0.15856372 -0.18059403 0.042089146 0.20666404
0.04999678 -0.10619164 0.009284798 0.09825271 0.16610304 -0.2702192 -0.042077303 -0.11207887
-0.06292078 -0.16080597 0.2491016 -0.10978819 -0.04627173 -0.052816913 -0.14658797 0.25740504
-0.053797808 -0.061828475 0.22259319 0.09256685 0.14636518 0.12690496 0.24123165 -0.25713477
-0.20306203 0.20633951 0.16197543 -0.030620296 0.19738404 -0.20936738 -0.13397045 0.10568094
-0.16292766 0.3136684 0.17473729 0.21801534 0.064646184 0.10557268 0.024376966 0.043312825
0.21597916 -0.011866026 -0.007308873 0.0033695207 -0.05618999 -0.039394185 0.20511171 -0.003098361
0.26102373 -0.21857092 0.22673284 0.3416717 -0.16251598 -0.22560556 -0.13480546 0.13052894
0.071819745 0.0676732 0.23779868 -0.0031517937 0.10428312 -0.14672655 0.062054314 0.17165886
0.22769272 0.18443306 0.115090996 0.2940046 0.24807075 0.15996104 -0.03854524 0.06816677
-0.023011371 0.14833024 -0.22598425 -0.18420647 -0.12656793 -0.10271736 -0.09896522 -0.06897684
-0.04974645 -0.19842659 0.2353507 -0.058135048 -0.22751088 0.042128183 0.07089366 -0.20028257
-0.111103766 -0.11668398 -0.015029878 0.32481927 -0.15886778 -0.18511422 0.10225909 -0.019377707
0.25914276 0.12156611 0.3008471 0.32434127 0.19722365 0.026095223 0.12483449 -0.18672659
0.12816095 0.22126499 -0.02767809 0.19754867 0.116584376 0.19238536 0.3845898 0.19645587
0.26552022 -0.2152263 0.28907457 0.3747588 -0.06490665 -0.036061537 -0.004089682 0.14492446
0.16455226 0.24939722 0.3353363 0.42568898 0.20468965 0.29785177 0.25753394 0.026755687
-0.052146718 -0.056988217 0.17890725 0.27485785 0.12355258 0.21063499 -0.15767336 0.21020524
-0.25968423 -0.12260081 0.18155049 0.22254282 0.018680813 -0.041765504 -0.16563185 0.20904437
-0.065101 -0.13620849 0.20421246 0.3088687 0.23668006 -0.042514008 0.31095204 -0.24368672
-0.0941858 -0.22360344 -0.258512 0.10204074 -0.20840058 0.2124707 -0.26505816 0.020753486
0.30719417 0.21920198 0.15492822 0.14923418 -0.16769437 0.13772626 0.053043168 -0.24200927
0.066082776 -0.25075433 0.11585495 -0.13045445 -0.06230873 -0.16070156 0.2633655 0.04626857
0.025194326 0.1580398 -0.14766394 -0.065166466 0.23963213 0.0735704 -0.2707014 0.15630838
0.29625356 0.055830646 -0.22049838 0.31817812 0.034075167 -0.20403892 -0.21487659 0.098213986
-0.26767758 -0.06598944 -0.1957504 -0.26961726 -0.11545019 -0.15874927 0.015878066 -0.2343543
0.2270696 0.18902454 -0.27821335 -0.08016422 -0.1735927 0.25718704 0.09089028 0.13627832
-0.11076329 0.093748294 -0.22953923 0.1968109 0.29350144 -0.16373114 0.25167057 0.21716656
0.00021983414 -0.14629868 0.047147423 0.010878109 0.14820282 -0.24625897 -0.20062007 -0.17700268
-0.15753359 0.29831573 0.28543556 0.25231937 0.094404146 0.040063895 0.34728205 0.26449198
-0.18424113 0.17926465 0.25195336 0.111390196 -0.24587406 0.015815122 0.08393447 0.1615641
0.007192563 -0.114820816 -0.13501434 -0.08131766 0.20295578 0.15480699 -0.24628982 -0.009103163

sequential/conv2d_2/Conv2D f4 [16, 3, 3, 16]
00000000: 20d3 533e 8fd0 543e 5ffe 903d e874 21be
00000010: 3eae c53c da53 f63d db15 20be 1965 513e
00000020: 2ea3 023e 4ac8 78bd 7f7e 7ebd 477b e93b
00000030: 24ee 11be a47f 4f3e bdcd c63b cde6 05bd
00000040: 2e73 88bd 8e22 8a3b c287 1a3c a2a4 afbb
00000050: dd1b 813c c159 08bd 034e 39be ae11 bf3c
00000060: b230 1ebd ac0f 003d f3dc 233d dcf9 053e
00000070: 2392 e33d 9f81 183d 6439 95bd 3749 31be
00000080: 629a 1f3e 762f 7c3e d606 383e 5890 053e
00000090: 99c3 223d 245b 4b3e 321e 003d 518c 183d
000000a0: 0269 2c3e 4743 f63d de38 a7bd 8a5f 903d
000000b0: dc68 cdbb 1dcb 4e3e c3e1 113e 62f8 9abd
000000c0: cb28 b33d 26e1 79bd f82e dcbb b0d9 223e
000000d0: 4504 2b3e 442d 2e3e 2dea 3ebe 3128 da3d
000000e0: 2f49 0c3c a960 0cbd add0 453e 4c3c c6bd
000000f0: d671 48be 095f e03d 3645 1a3e 1aef 15bd
00000100: f701 c2bd d6b8 63be ba65 f93c 4b1a 97bc
00000110: b12f fcbd 3881 aebd d484 793d 181c 053c
00000120: 674b 3d3e 690b 433e f3f9 65bd 8917 4a3e
00000130: 47a9 46be f039 923d 6d06 37bc 1d87 06bd
00000140: ff63 1e3e d05c 383b 0bb9 3ebd 3b69 423d
00000150: 38bd b8bd 17f1 a7bd aef4 473e c6c0 1f3e
00000160: 40cc 973d adce 3d3e cede 2bbe 6739 1abe
00000170: c08b 13be ab8c ecbd f7eb aebc 0d42 cabc
00000180: 2d9e 8abd da79 57be ff9a 81bd 4746 203e
00000190: 9160 a1bd a505 993d 845e 2b3d f338 8f3d
000001a0: 21e6 5bbc 329f fd3d e791 dbbd 085f 1c3e
000001b0: 338c 2b3b b81f 643d 12e6 a9bd f096 20be
000001c0: 0841 b43d cccf b2bd b3b8 89bd f3ce 38bd
000001d0: 7df6 cbbd 5895 d43d 4894 353d cf94 893d
000001e0: 6290 243e ee5e 0fbe 47db ba3d 606a 03be
000001f0: 4034 963d 58e8 c8bd 087c 653d aa4f 1f3d
00000200: 26f2 a43d 4c35 11be 850f 29be 4f01 f63d
00000210: 5327 923c 67a0 2abd 95fc c93a 5b77 3b3e
00000220: 5d35 cfbc c086 b8bd c700 d23d 952f 183e
00000230: 8ecd 9cbd fb5b 40be 2010 0fbd 19c3 ff3d
00000240: 8169 82bb 5a34 493e 65de 4abe 9570 babd
00000250: 00ac 18be 5d74 193e 9436 2fbd 2bd6 80bd
00000260: e3ee 243e d146 2b3d 35d0 77bd 4952 48be
00000270: 3d61 353e 400d 1e3e 430c 21be 06a1 b0bc
00000280: 0c8f 0ebe 8e7f 263e e650 88bd 18ed 18be
00000290: f855 de3d 2371 5bbd 1818 2fbe 4bc6 933d
000002a0: f55f b13d 47b9 26be 6f6a 1d3c d9b1 ed3d
000002b0: dbbf 533d 7d32 54be 9733 013e b3ff 403d
000002c0: fd62 923d e4b5 283c c040 103e bb9f 583c
000002d0: c957 20bc cab4 1dbe 77be 15be c05f febd
000002e0: c3e1 00bd c7a4 bfbc db6f cfbd 879d 1dbe
000002f0: c5ae 4e3b 6478 2a3e 411e 06bd ecee 4d3d
00000300: abdb 35be a48d 05be 0a6d d53d b6e7 eebd
00000310: bb45 3abe cca1 313e 01c9 40be 8eb2 4cbe
00000320: a316 ea3d d765 16be 2b7c 67ba 9ada ce3d
00000330: a61c 82bc 9d40 2fbe fec9 4a3d d502 29bd
00000340: 12cc 15be d950 84bd 47a7 04be 07d1 713a
00000350: d848 04be 1c98 0e3e 51b4 073e 5c2b 0cbd
00000360: f996 5e3e 5bb7 163d a829 4fbe 0983 16be
00000370: ad96 083e 5ed2 12be 59e4 623d e9b7 38be
00000380: 9801 703d 7726 21be c9d6 0cbd 708a 2e3e
00000390: d55a 343e bc0e 003e 3ccf 2e3d 0ba3 ca3d
000003a0: 5dc8 593c 8062 a33c abf0 92bd 9272 1d3e
000003b0: bc79 f73d 4416 4e3e 654b 2dbe a0c7 f73d
000003c0: 43b2 853d c416 733e 5a5b 8a3b e916 373e
000003d0: eca4 ee3d fced 3d3e f85d 833d e6a8 bcbd
000003e0: 9389 083e df5a 04be 17ee 0ebe f673 f9bd
000003f0: 54b2 263d e1aa 333e 8e13 15be 3dd2 80bc
0.20686007 0.20782684 0.070797674 -0.15767252 0.024130937 0.12027712 -0.15633337 0.20448722
0.1275756 -0.060737886 -0.062132355 0.0071252915 -0.14251 0.20263535 0.0060670064 -0.032690812
-0.06662594 0.004215545 0.009431781 -0.005360202 0.015760357 -0.03328872 -0.18096165 0.02332386
-0.03862066 0.031264946 0.040005635 0.13083595 0.11111858 0.03723299 -0.07286337 -0.17313085
0.15586236 0.2462748 0.17971358 0.13043344 0.039737318 0.19858986 0.031278796 0.03724319
0.16836932 0.12024551 -0.081651434 0.07049473 -0.0062686037 0.20194669 0.14246278 -0.075669065
0.08748015 -0.061005734 -0.0067194663 0.15903354 0.16700847 0.17009455 -0.18644018 0.10652197
0.00856237 -0.03427187 0.19317885 -0.096794695 -0.19574675 0.109556265 0.15065464 -0.03660498
-0.09473031 -0.22238478 0.030444015 -0.018445155 -0.12313784 -0.0852074 0.06091769 0.008124374
0.18485795 0.19047321 -0.056146573 0.1973554 -0.19400512 0.07139957 -0.011170966 -0.032843698
0.15467833 0.0028131492 -0.04656319 0.047463637 -0.090204656 -0.08200281 0.19526932 0.15600881
0.074120045 0.18535872 -0.16784212 -0.1506096 -0.14408779 -0.11550268 -0.021352751 -0.024689699
-0.06768451 -0.21042576 -0.06328391 0.15651809 -0.07879747 0.0747178 0.041838184 0.06993284
-0.013421566 0.1238388 -0.10721188 0.15270627 0.0026176095 0.05569431 -0.082958356 -0.15682578
0.08801466 -0.0873104 -0.06724682 -0.045119237 -0.09959123 0.103800476 0.044330865 0.06717836
0.16070703 -0.14001057 0.09123855 -0.12833548 0.07334185 -0.09809941 0.05602649 0.038894333
0.08053999 -0.14180487 -0.16509826 0.12011968 0.017841017 -0.041656878 0.0015410358 0.18307249
-0.025294 -0.090100765 0.102540545 0.14861901 -0.07656394 -0.18785088 -0.034927487 0.12488384
-0.003979862 0.19648877 -0.198114 -0.091035046 -0.14909363 0.14985795 -0.04277666 -0.06290849
0.16106753 0.041815583 -0.060501296 -0.1956264 0.17712875 0.15434742 -0.15727334 -0.021561157
-0.13921756 0.16259596 -0.06656055 -0.14934194 0.10856241 -0.053574692 -0.17099035 0.07215556
0.086608805 -0.16281615 0.009607895 0.116061874 0.05169664 -0.20722385 0.12617336 0.047118854
0.07147787 0.010297272 0.140872 0.013221676 -0.009786555 -0.15400997 -0.14623438 -0.124206066
-0.031465303 -0.023394002 -0.101287566 -0.15392123 0.0031537276 0.16647488 -0.032743696 0.05027668
-0.17759578 -0.13042313 0.10421188 -0.11665289 -0.18190663 0.17346877 -0.18826677 -0.19989988
0.11430099 -0.14687286 -0.0008830453 0.10100289 -0.015882801 -0.17114492 0.04950904 -0.041262466
-0.14628628 -0.06460733 -0.12954436 0.0009224568 -0.12918413 0.13925213 0.13252379 -0.03422104
0.21737279 0.036795955 -0.20230734 -0.14698423 0.13338728 -0.14338061 0.05539355 -0.18038906
0.05859527 -0.1573733 -0.034384523 0.17044997 0.17612775 0.1250562 0.042678103 0.09894379
0.013292399 0.01994443 -0.0717481 0.15375736 0.12083766 0.20125681 -0.16923292 0.12098622
0.06528141 0.23739153 0.0042223157 0.17879833 0.1165255 0.18547815 0.064144075 -0.09211902
0.1333373 -0.1292529 -0.13958012 -0.12180321 0.04069741 0.17545654 -0.14558241 -0.01572525
