training/output/gesture_model.tflite (tflite, 34772 bytes, 10 tensors)

sequential/conv2d/BiasAdd/ReadVariableOp/resource f4 [8]
-0.0013927447 -0.00015705993 -2.1150263e-05 0.06987941 -0.0013195302 -0.0002334384 -0.0008886102 0.1265178
00000000: c28c b6ba 74b0 24b9 d86b b1b7 f01c 8f3d
00000010: 16f4 acba 25c7 74b9 9ff1 68ba e28d 013e

sequential/conv2d_1/BiasAdd/ReadVariableOp/resource f4 [16]
0.014337446 -0.007456943 -0.043105192 0.08571708 -0.013219258 0.12862197 0.0043116324 0.087281846
-0.0039733895 0.110766396 -0.025673198 -0.03054282 0.028084904 0.0018615627 0.00030609508 -0.015933318
00000000: 9be7 6a3c 5f59 f4bb 128f 30bd 708c af3d
00000010: 9695 58bc 7ab5 033e 9848 8d3b d3c0 b23d
00000020: 3533 82bb 7ed9 e23d 9950 d2bc f034 fabc
00000030: 5012 e63c aeff f33a 637b a039 9786 82bc

sequential/conv2d_2/BiasAdd/ReadVariableOp/resource f4 [16]
-0.022058552 0.03573468 0.047440954 -0.025640814 -0.12345347 -0.0031302918 0.113047905 -0.00899399
0.12621093 0.033786308 0.0075881765 0.007789576 0.12387109 -0.0022165775 -0.0023377074 -0.012300703
00000000: 23b4 b4bc 875e 123d 7251 423d af0c d2bc
00000010: 2cd5 fcbd 9525 4dbb a985 e73d 875b 13bc
00000020: 703d 013e 8363 0a3d 3da6 f83b b33f ff3b
00000030: 20b0 fd3d 0044 11bb 3934 19bb e388 49bc

sequential/dense/BiasAdd/ReadVariableOp/resource f4 [16]
-0.07514322 0.0032401627 -0.043545775 -0.0046768077 0.023880677 -0.051192876 0.12767722 0.023674393
-0.021256464 -0.0075373603 -0.010208792 0.00032740136 0.14866418 -0.1487064 0.03573988 -0.07665302
00000000: b0e4 99bd e958 543b 0e5d 32bd e83f 99bb
00000010: 69a1 c33c 9faf 51bd d1bd 023e cdf0 c13c
00000020: 0922 aebc f6fb f6bb c742 27bc 11a7 ab39
00000030: 6c3b 183e 7e46 18be fb63 123d 42fc 9cbd

sequential/dense_1/BiasAdd/ReadVariableOp/resource f4 [7]
-0.13566224 0.008087027 -0.09715607 0.13746457 0.20558786 -0.028836679 -0.08948517
00000000: 0beb 0abe 737f 043c c3f9 c6bd 83c3 0c3e
00000010: a085 523e e63a ecbc 0044 b7bd

sequential/dense/MatMul f4 [16, 256]
-0.090838246 0.112802275 0.16685155 0.03762954 0.21974947 0.14090882 0.086703844 0.07263322
-0.04904315 0.017607905 -0.023200506 0.050196473 0.0963056 0.08750675 0.12915286 0.015614974
0.076076105 0.009056411 -0.009487097 0.038415745 -0.08908626 -0.021951536 -0.13730805 -0.0349251
0.013786097 -0.060129996 -0.10656829 -0.10207048 -0.14338593 -0.063470475 0.12503625 -0.055403277
-0.09857693 -0.025662232 -0.1721895 -0.038185645 -0.1508589 0.1403524 0.12090765 0.035725735
-0.10384752 0.020794297 -0.16835861 -0.109970786 -0.15829141 -0.13502207 -0.07100762 0.09563706
-0.11969071 -0.120284766 0.085482314 0.00026167813 0.0629835 0.09051516 -0.07704996 0.042116955
-0.15100466 -0.058530718 -0.04321087 -0.0861436 -0.092024274 0.046997156 -0.05190629 0.11671528
-0.03183535 0.15774968 0.009671918 0.114070326 0.22515118 -0.1320891 0.096324824 0.08371788
-0.09830777 -0.08542001 0.11921128 -0.037594035 0.034515966 -0.0875245 0.124589935 -0.090983465
0.107709534 -0.14117342 0.05915682 -0.11400442 0.11455527 0.032593936 0.0082867835 -0.072297886
-0.1229588 -0.10669059 -0.13156082 0.046189982 0.09322692 -0.12594998 0.045894843 -0.16847034
0.1404941 -0.12988913 0.055348717 0.105366096 -0.13112016 0.084291466 -0.0936757 0.07624218
0.08171654 0.06742107 -0.00089344004 -0.12727116 -0.069403686 -0.058306113 0.10908967 0.030070603
0.08550092 0.14585777 0.12846625 -0.12343908 0.023274237 -0.06802851 -0.09907409 0.02720277
0.1209387 -0.0017829689 -0.023896588 -0.13509695 -0.16335137 0.050104156 0.14354445 0.015987659
0.13439074 0.08431945 0.07927202 -0.019721251 0.16717847 -0.17735392 0.094894476 0.09372493
0.10698056 -0.0066294284 -0.12742259 -0.0012561188 0.068901755 0.02212123 -0.028081201 0.0033875334
-0.036867775 -0.04572238 0.04745577 -0.0077675 -0.036687788 -0.00021463334 -0.021751909 0.032872368
-0.06464396 -0.0855176 -0.14279221 0.06522341 0.11415767 0.118098326 -0.14564143 0.0057038506
-0.047131505 0.038419712 0.085384496 0.073700905 -0.03264041 -0.049574617 -0.1301777 -0.06895752
-0.017840357 -0.016349427 -0.055600617 -0.11387839 -0.012846121 0.10789269 0.024545792 -0.1541777
-0.11494792 0.0718928 -0.1260001 0.16965048 0.17602749 0.1319907 -0.031858534 -0.015813274
-0.010332711 0.11980133 -0.09450225 -0.09876841 0.03015276 -0.019675197 0.093623795 -0.06604758
-0.03943154 0.024965163 -0.06515031 0.10293132 -0.022222882 -0.113430545 0.0517988 0.040792864
0.1185519 0.03447317 -0.1628886 0.0034906943 0.039468832 -0.07012023 -0.1055191 0.023288723
-0.116895236 0.080857396 -0.045996208 0.077133544 0.085830785 0.046348635 0.12314031 0.079621695
0.10741294 0.10072863 0.10892368 -0.18611322 0.036456257 -0.08699755 -0.12618273 -0.14104995
0.094016604 -0.1429454 0.014950842 0.020683307 0.018718535 -0.023593554 0.006909671 0.042323843
-0.020086942 -0.017777631 -0.15284456 -0.041330468 0.08669012 -0.105817005 -0.039458882 -0.17112158
-0.123816825 0.071518406 0.08282159 -0.03782733 0.08034274 -0.07166649 0.032986205 0.011608923
0.11065947 -0.10547501 0.09295498 -0.086198196 -0.15947932 0.11634005 0.03603227 0.047169067
00000000: 6709 babd e104 e73d 22db 2a3e 6f21 1a3d
00000010: 0106 613e 674a 103e c991 b13d bac0 943d
00000020: 78e1 48bd 743e 903c fd0e bebc d19a 4d3d
00000030: df3b c53d bd36 b33d a640 043e f3d5 7f3c
00000040: cacd 9b3d 5761 143c c56f 1bbc d459 1d3d
00000050: db72 b6bd b5d3 b3bc 7b9a 0cbe 9f0d 0fbd
00000060: 15df 613c df4a 76bd 7a40 dabd 540a d1bd
00000070: c3d3 12be cffc 81bd 8109 003e 8cee 62bd
00000080: b4e2 c9bd 9a39 d2bc 7252 30be 8d68 1cbd
00000090: c17a 1abe 8ab8 0f3e 6e9e f73d 2655 123d
000000a0: 02ae d4bd cd58 aa3c 3366 2cbe 5d38 e1bd
000000b0: 2517 22be 3a43 0abe 716c 91bd 5ddd c33d
000000c0: 6720 f5bd dc57 f6bd 5a11 af3d d831 8939
000000d0: 7efd 803d 0360 b93d 5fcc 9dbd d482 2c3d
000000e0: f7a0 1abe e8bd 6fbd e2fd 30bd 0e6c b0bd
000000f0: 3977 bcbd 1780 403d b19b 54bd 6c08 ef3d
00000100: c965 02bd 2289 213e f776 1e3c b49d e93d
00000110: 088e 663e 5d42 07be f345 c53d 4874 ab3d
00000120: 9655 c9bd b0f0 aebd 0b25 f43d 34fc 19bd
00000130: 9d60 0d3d 0c40 b3bd 0229 ff3d 8a55 babd
00000140: d196 dc3d c48f 10be 6c4e 723d 267b e9bd
00000150: f49b ea3d 3881 053d 4ac5 073c ea10 94bd
00000160: d3d1 fbbd 9980 dabd e1b7 06be b531 3d3d
00000170: c1ed be3d 08f9 00be 3bfc 3b3d 7d83 2cbe
00000180: afdd 0f3e a801 05be 56b5 623d 2eca d73d
00000190: 5d44 06be 01a1 ac3d 0cd9 bfbd dc24 9c3d
000001a0: 005b a73d 0f14 8a3d bf35 6aba 5f53 02be
000001b0: 8523 8ebd 64d2 6ebd 686a df3d a056 f63c
000001c0: 1b1b af3d bd5b 153e a88c 033e a1cd fcbd
000001d0: 9da9 be3c 8852 8bbd 5be7 cabd 58d8 de3c
000001e0: b6ae f73d 82b2 e9ba c7c2 c3bc db56 0abe
000001f0: 9545 27be 043a 4d3d 51fd 123e 8df8 823c
00000200: ba9d 093e adaf ac3d 5e59 a23d 768e a1bc
00000210: d530 2b3e 449c 35be 0958 c23d dbf2 bf3d
00000220: a018 db3d ad3b d9bb 117b 02be 5aa4 a4ba
00000230: 5d1c 8d3d 9537 b53c 8c0a e6bc 6101 5e3b
00000240: aa02 17bd 6447 3bbd fb60 423d 8386 febb
00000250: ef45 16bd 330f 61b9 0f31 b2bc 2da5 063d
00000260: 0d64 84bd da23 afbd 1f38 12be da93 853d
00000270: 7fcb e93d 89dd f13d 0723 15be 5ee7 ba3b
00000280: f70c 41bd fd5d 1d3d 11de ae3d 80f0 963d
00000290: f3b1 05bd c10e 4bbd 4e4d 05be 9a39 8dbd
000002a0: f125 92bc 3cef 85bc 79bd 63bd 1339 e9bd
000002b0: 8978 52bc d8f6 dc3d 4214 c93c c2e0 1dbe
000002c0: d169 ebbd 883c 933d 2c06 01be dbb8 2d3e
000002d0: 8d40 343e 9228 073e 187e 02bd d78a 81bc
000002e0: 884a 29bc 665a f53d 658a c1bd 1847 cabd
000002f0: ec02 f73c e12d a1bc d5bd bf3d f443 87bd
00000300: f782 21bd be83 cc3c 876d 85bd a8cd d23d
00000310: c30c b6bc 464e e8bd fa2a 543d 6b16 273d
00000320: 57cb f23d bd33 0d3d 45cc 26be 22c4 643b
00000330: 12aa 213d 329b 8fbd 661a d8bd fec7 be3c
00000340: c566 efbd 9098 a53d 8566 3cbd 31f8 9d3d
00000350: 0dc8 af3d 11d8 3d3d fd30 fc3d b310 a33d
00000360: 51fb db3d d04a ce3d 6113 df3d 7794 3ebe
00000370: 2853 153d c62b b2bd 0c36 01be 666f 10be
00000380: c78b c03d 4760 12be 60f4 743c 0a70 a93c
00000390: 9d57 993c 4547 c1bc 856a e23b c45b 2d3d
000003a0: 5f8d a4bc 65a2 91bc 4983 1cbe 234a 29bd
000003b0: 978a b13d 96b6 d8bd a39f 21bd 7f3a 2fbe
000003c0: ad93 fdbd 3e78 923d 5e9e a93d d5f0 1abd
000003d0: bc8a a43d e1c5 92bd 8b1c 073d 5a33 3e3c
000003e0: 6fa1 e23d 4803 d8bd 2e5f be3d ae88 b0bd
000003f0: 8c4e 23be b143 ee3d 9396 133d 5a34 413d

sequential/dense_1/MatMul f4 [7, 16]
-0.085363634 0.025043244 0.27745628 -0.040863916 -0.35122934 0.5587553 -0.34960216 -0.21891327
0.5231171 0.4290303 -0.4579976 0.021366585 0.0017964733 0.3829863 0.15504378 -0.16920476
0.0600925 -0.3221639 0.26386258 0.22208363 0.0070793577 0.0005058378 -0.61884433 0.5375624
-0.50746125 0.28683874 -0.07641618 -0.49932218 -0.09218205 -0.28294298 -0.27092922 0.360643
-0.46537256 -0.24871475 -0.47440225 -0.13735141 -0.2871067 0.3235666 -0.5626476 0.59002686
-0.40725896 0.43969327 -0.06367142 -0.4335582 -0.30810452 0.1316843 0.6217515 0.3857338
0.085881785 0.52321035 -0.4369722 0.12951285 0.18183579 -0.11785479 -0.043900833 0.35134855
-0.4598747 -0.098773666 -0.4450562 0.22727446 0.031743594 -0.6791912 0.6457105 -0.47020507
-0.5746214 -0.43653744 0.032740537 0.08820027 -0.24930525 -0.34667635 0.5399097 -0.0017005149
0.027750371 -0.35716662 -0.214146 -0.18776363 0.82020015 -0.34812665 0.18613026 0.080714196
-0.26300797 -0.4426103 -0.4322217 0.1592352 0.29120082 -0.26522303 -0.52976406 -0.014046068
-0.09262995 0.12644924 0.21256201 -0.3699486 -0.038722977 0.42760283 9.7368364e-05 0.13302243
0.13321754 -0.26916045 0.2142302 0.42726192 -0.061629992 -0.0141119575 0.2957023 -0.03602565
-0.05654967 0.2581736 0.43567657 0.48988476 -0.38760534 -0.23793635 -0.14183521 -0.09396386
00000000: 21d3 aebd 7d27 cd3c c00e 8e3e ec60 27bd
00000010: 55d4 b3be 960a 0f3f 0eff b2be cd2a 60be
00000020: 01eb 053f dca9 db3e a97e eabe fa08 af3c
00000030: a477 eb3a c816 c43e ccc3 1e3e 0344 2dbe
00000040: 8e23 763d abf2 a4be ff18 873e e469 633e
00000050: f5f9 e73b 339a 043a 956c 1ebf b09d 093f
00000060: fbe8 01bf 87dc 923e 1680 9cbd 28a7 ffbe
00000070: f1c9 bcbd e7dd 90be 3cb7 8abe 33a6 b83e
00000080: 5045 eebe 14af 7ebe dae4 f2be d9a5 0cbe
00000090: a6ff 92be 85aa a53e ac09 10bf 000c 173f
000000a0: 3f84 d0be 7a1f e13e 2966 82bd 57fb ddbe
000000b0: e0bf 9dbe 40d8 063e 1b2b 1f3f e77e c53e
000000c0: cae2 af3d 1df1 053f d2ba dfbe 049f 043e
000000d0: 2933 3a3e da5d f1bd 5cd1 33bd f5e3 b33e
000000e0: b274 ebbe d949 cabd 68de e3be a3ba 683e
000000f0: 9205 023d 79df 2dbf 494d 253f b8be f0be
00000100: 631a 13bf d681 dfbe f11a 063d 58a2 b43d
00000110: e049 7fbe 907f b1be 8637 0a3f d0e3 deba
00000120: bf54 e33c 8bde b6be 1749 5bbe 1c45 40be
00000130: a3f8 513f a83d b2be ee98 3e3e 7c4d a53d
00000140: fba8 86be d19d e2be 2a4c ddbe 8d0e 233e
00000150: 4618 953e 50cb 87be 9e9e 07bf 7b21 66bc
00000160: c5b4 bdbd e97b 013e dba9 593e e769 bdbe
00000170: fc9b 1ebd c2ee da3e 3e32 cc38 0837 083e
00000180: 2e6a 083e 66cf 89be 295f 5b3e 13c2 da3e
00000190: bb6f 7cbd d735 67bc 4b66 973e a28f 13bd
000001a0: a0a0 67bd 552f 843e 0011 df3e 2dd2 fa3e
000001b0: 3574 c6be 96a5 73be 403d 11be 2070 c0bd

sequential/conv2d/Conv2D f4 [8, 3, 3, 1]
0.115517 -0.75753605 -0.148318 0.949162 0.72742975 0.49482903 0.38519567 0.24582025
0.80429864 0.25176662 -0.74109954 -0.2867022 0.34792608 0.43706903 -0.24381036 -0.37718806
-0.7945448 0.716554 -0.25056067 0.85873556 0.2668597 0.7018416 0.24494818 0.19555973
0.6189416 -0.665942 0.54284537 0.7128385 0.09475354 -0.26263264 0.5845557 0.079808906
0.9092513 0.3118704 -0.4000303 -0.6305892 0.6844349 -0.42133415 0.24391165 0.30502993
-0.5988259 0.38561124 0.27989286 -0.8040734 -0.5352985 0.68238294 -0.50337654 0.48322856
0.6233957 0.81889474 -0.31174034 -0.14799522 -0.7234046 0.5378355 -0.5594226 -0.10686929
0.27618563 0.23597445 -0.20967773 0.09307039 0.77684134 -0.5793873 -0.47606662 -0.6552561
0.96211505 -0.5535096 0.74401647 -0.29087114 0.8727771 0.26171264 0.3524318 -0.5619462
00000000: 2d94 ec3d e2ed 41bf ace0 17be 48fc 723f
00000010: d638 3a3f 3b5a fd3e 5e38 c53e 4eb8 7b3e
00000020: 84e6 4d3f 8ee7 803e b3b8 3dbf a1ca 92be
00000030: 5e23 b23e 83c7 df3e 6ca9 79be cb1e c1be
00000040: 4a67 4bbf 1570 373f 7d49 80be 18d6 5b3f
00000050: d6a1 883e e4ab 333f b2d3 7a3e cf40 483e
00000060: f572 1e3f 2d7b 2abf eaf7 0a3f 957c 363f
00000070: 250e c23d c977 86be 71a5 153f da72 a33d
00000080: b1c4 683f 7aad 9f3e c5d0 ccbe 4b6e 21bf
00000090: 2037 2f3f 1cb9 d7be fac3 793e e22c 9c3e
000000a0: a74c 19bf d66e c53e 1e4e 8f3e c1d7 4dbf
000000b0: 5309 09bf a6b0 2e3f 49dd 00bf bc69 f73e
000000c0: dc96 1f3f 16a3 513f 6e9c 9fbe 0f8c 17be
000000d0: 0b31 39bf 96af 093f 5236 0fbf 49de dabd
000000e0: 3468 8d3e 49a3 713e c2b5 56be b09b be3d
000000f0: 13df 463f ba52 14bf 01bf f3be ddbe 27bf
00000100: 2c4d 763f ceb2 0dbf dd77 3e3f 10ed 94be
00000110: 526e 5f3f 33ff 853e f171 b43e b5db 0fbf

sequential/conv2d_1/Conv2D f4 [16, 3, 3, 8]
0.14876348 0.20158976 -0.104336105 -0.024189949 0.050484527 -0.0769309 -0.13575052 -0.10121652
0.17088412 0.10831169 0.08059324 0.32146558 0.1921631 0.11455569 0.07023863 0.15232906
0.25747195 -0.23604885 -0.010063119 0.050807614 -0.021559328 -0.08974152 -0.277259 -0.14031415
-0.04182044 0.10255599 0.1527327 0.19499324 0.11558714 -0.23114933 -0.06468208 -0.09614155
0.17960644 0.11062898 0.22276217 0.31789365 0.23166075 -0.15060735 0.00020024946 0.03195049
0.10610485 0.06897036 0.021872157 -0.122192115 0.18646584 -0.006195438 -0.10000701 0.19850211
0.3187381 0.038269024 -0.051752087 0.2752716 -0.04417059 0.07197371 0.06621482 0.28365913
0.05866384 -0.011819757 0.06801982 0.29518488 -0.22557709 0.016317237 0.10427624 -0.11890713
0.020385379 0.14001639 -0.04980684 -0.23086049 0.23505443 -0.18513191 -0.08661061 0.039208062
0.2554714 0.24695131 0.001132465 -0.10406674 -0.010700135 0.23819925 0.23117618 -0.12764227
-0.027387433 0.22167362 0.21710618 0.053850483 0.15859827 0.039788544 0.01167919 0.25910833
0.043870836 -0.09713475 -0.13881896 -0.13450038 -0.1686407 0.08334139 0.19847561 -0.12600866
-0.2550278 -0.15802611 -0.22138304 -0.2391304 0.019655213 -0.17030254 -0.26525837 0.1439986
0.10501193 -0.035100773 0.15780702 0.1645347 0.18803298 0.032895282 0.03493079 -0.2428353
0.10796303 -0.21035321 -0.0925234 0.2769511 0.22309507 -0.18745703 -0.21448635 -0.117138796
0.017505756 0.25845477 -0.012310287 -0.18152331 0.25748044 0.15707873 0.20530619 -0.21332252
-0.078919925 0.1635077 0.01288898 0.073334485 0.27222425 -0.22855045 -0.2508102 0.04737349
-0.29013452 -0.14999862 0.10746906 -0.0445464 -0.15971845 0.18339427 0.13917515 -0.078489356
0.28357905 -0.14065427 0.19903758 -0.08035044 0.14145178 0.055665217 0.31219792 -0.09603668
0.10168087 0.34573784 0.25334248 0.39395228 0.11653861 0.42414314 -0.12377169 0.3767316
0.3520132 -0.12572643 -0.03872577 0.26255894 0.14499508 0.23164535 0.008788071 0.36994496
-0.083457306 -0.05486974 -0.22223312 -0.09255473 -0.05878763 -0.19767414 0.25563714 -0.022973387
-0.053149976 -0.13782294 0.02521378 0.021175215 -0.057530332 -0.052362714 -0.21739139 0.031965557
0.3149089 -0.09334217 0.16120908 0.1708864 -0.036820166 0.0067461724 -0.0935264 0.31612232
0.22644818 0.2489335 0.14356309 -0.00066320354 -0.07289692 -0.004423041 0.09109589 -0.17433186
0.1723686 -0.23999804 -0.17967354 0.20009008 0.2833825 -0.03532777 0.11805101 -0.19367892
-0.16262288 -0.15230347 -0.02662378 0.23502927 -0.25915644 -0.08554168 0.026175283 0.11018871
-0.20098482 0.15328008 -0.22665358 0.28523666 -0.03306224 0.15092722 -0.060233887 0.2121137
-0.17107236 0.020641966 -0.0062918672 0.07473706 -0.11373587 0.025498442 -0.21616967 -0.17759843
0.0549092 -0.19605199 0.056528807 0.008416279 -0.19794169 0.19227684 0.27300423 -0.044517353
-0.2273451 -0.11460913 -0.011797592 0.11087685 0.022614986 0.092725426 0.2884356 0.29255554
0.09095309 -0.23564442 0.02126774 -0.18388058 0.26751617 0.23289868 -0.15029284 0.09386303
00000000: 7455 183e 8c6d 4e3e 2bae d5bd 002a c6bc
00000010: ddc8 4e3d f38d 9dbd 2f02 0bbe 9b4a cfbd
00000020: 3ffc 2e3e 85d2 dd3d 120e a53d 2397 a43e
00000030: 67c6 443e 2c9c ea3d 45d9 8f3d 26fc 1b3e
00000040: 5dd3 833e cab6 71be c8df 24bc a51b 503d
00000050: 309d b0bc 67ca b7bd e4f4 8dbe 83ae 0fbe
00000060: e94b 2bbd e008 d23d f665 1c3e 4fac 473e
00000070: f3b8 ec3d 69b2 6cbe 0a78 84bd dce5 c4bd
00000080: c0ea 373e 7291 e23d c41b 643e f5c2 a23e
00000090: 7a38 6d3e d038 1abe 0efa 5139 84de 023d
000000a0: 804d d93d 5540 8d3d 3d2d b33c dc3f fabd
000000b0: e7f0 3e3e 1a03 cbbb 7ad0 ccbd 2344 4b3e
000000c0: a431 a33e fbbf 1c3d fff9 53bd 66f0 8c3e
000000d0: 38ec 34bd f466 933d a39b 873d c53b 913e
000000e0: 7f49 703d a7a7 41bc fa4d 8b3d 7922 973e
000000f0: aefd 66be baab 853c c88e d53d 9585 f3bd
00000100: 3dff a63c 7560 0f3e 4202 4cbd b166 6cbe
00000110: 1cb2 703e 3893 3dbe e760 b1bd a298 203d
00000120: 26cd 823e cee0 7c3e 386f 943a f120 d5bd
00000130: 9e4f 2fbc 81ea 733e 73b9 6c3e a8b4 02be
00000140: 9c5b e0bc 69fe 623e 1551 5e3e 5392 5c3d
00000150: 9667 223e 50f9 223d 135a 3f3c d9a9 843e
00000160: e8b1 333d 95ee c6bd 8f26 0ebe 78ba 09be
00000170: 26b0 2cbe e4ae aa3d 313d 4b3e 6a08 01be
00000180: 0193 82be 99d1 21be 3cb2 62be 99de 74be
00000190: f803 a13c ca63 2ebe f2cf 87be 5e74 133e
000001a0: 7f10 d73d d4c5 0fbd 2a98 213e c97b 283e
000001b0: b88b 403e 34bd 063d 9713 0f3d d1a9 78be
000001c0: b91b dd3d d566 57be e97c bdbd 89cc 8d3e
000001d0: 0973 643e bcf4 3fbe 4fa2 5bbe 77e6 efbd
000001e0: 3b68 8f3c 2f54 843e 16b1 49bc 3fe1 39be
000001f0: 7ad4 833e 3fd9 203e c93b 523e 3871 5abe
00000200: c5a0 a1bd 906e 273e 4d2c 533c 6430 963d
00000210: fa60 8b3e 2109 6abe 326a 80be b40a 423d
00000220: 838c 94be 3d99 19be bd18 dc3d 4976 36bd
00000230: 3c8d 23be b5cb 3b3e ee83 0e3e 07bf a0bd
00000240: 4631 913e ac07 10be 82d0 4b3e c68e a4bd
00000250: bcd8 103e 3601 643d 68d8 9f3e e1ae c4bd
00000260: 0f3e d03d 8d04 b13e 1bb6 813e 1db4 c93e
00000270: cbab ee3d 4a29 d93e 037c fdbd f7e2 c03e
00000280: 133b b43e 6ebe 00be ea9e 1ebd 206e 863e
00000290: 9779 143e 7034 6d3e d7fb 0f3c 6d69 bd3e
000002a0: aaeb aabd 18bf 60bd 1491 63be 568d bdbd
000002b0: 4ccb 70bd 176b 4abe dfe2 823e af32 bcbc
000002c0: cab3 59bd 7521 0dbe 218d ce3c a577 ad3c
000002d0: eda4 6bbd 497a 56bd d99b 5ebe 51ee 023d
000002e0: bd3b a13e 2e2a bfbd fe13 253e d8fc 2e3e
000002f0: bed0 16bd ff0e dd3b c58a bfbd c9da a13e
00000300: 08e2 673e 6ce8 7e3e 3402 133e d6da 2dba
00000310: fb4a 95bd 28ef 90bb 7b90 ba3d 0d84 32be
00000320: 6581 303e 0cc2 75be 57fc 37be 6ae4 4c3e
00000330: 8317 913e dab3 10bd bac4 f13d c453 46be
00000340: 9d86 26be 71f5 1bbe 1d1a dabc 83ab 703e
00000350: 27b0 84be 7a30 afbd 8c6d d63c 9eaa e13d
00000360: f7ce 4dbe 74f5 1c3e e017 68be 8a0a 923e
00000370: 456c 07bd aa8c 1a3e cfb7 76bd 5534 593e
00000380: 982d 2fbe 5719 a93c 022c cebb be0f 993d
00000390: 5aee e8bd 1ce2 d03c 955b 5dbe 5ddc 35be
000003a0: 78e8 603d dac1 48be c08a 673d 6fe4 093c
000003b0: 3ab1 4abe 38e4 443e 36c7 8b3e d457 36bd
000003c0: 27cd 68be 31b8 eabd b04a 41bc 6713 e33d
000003d0: 1043 b93c d4e6 bd3d d5ad 933e d7c9 953e
000003e0: 9d45 ba3d c54c 71be af39 ae3c 314b 3cbe
000003f0: e1f7 883e fe7c 6e3e 5ee6 19be 433b c03d

sequential/conv2d_2/Conv2D f4 [16, 3, 3, 16]
0.13870862 -0.09059064 0.006407986 -0.10906413 0.15651189 -0.169102 0.14556798 0.12871256
-0.035849236 -0.1394071 0.029690668 -0.06421348 0.19668049 0.13727777 -0.17124887 0.10517805
0.14787777 -0.11542541 -0.050702296 0.042701636 0.12634458 -0.15142645 -0.096835114 -0.20361412
0.1836102 0.1784775 -0.115558766 -0.107180506 -0.19415836 -0.1069876 0.1272364 -0.17955521
-0.07628526 -0.1102709 0.02553348 0.017182142 0.066293105 0.059276417 -0.01666129 -0.20530242
0.13773969 0.13398175 0.14077623 0.008957894 -0.16551495 -0.18735592 0.06903146 -0.15458558
-0.078344494 0.02421922 0.12453331 -0.027507199 -0.18146935 -0.004483852 0.10675416 -0.13500421
0.18798989 0.1339028 -0.17614709 -0.11926377 -0.12635651 0.13441679 -0.00089251593 0.05069282
-0.076920114 -0.005200439 0.10755875 0.20354772 -0.18866669 0.19801934 0.007081239 -0.0021199575
-0.19281027 -0.14429905 -0.0024283102 0.13947432 0.078548506 -0.07466005 0.10471438 -0.036582902
-0.005725284 0.14338419 -0.113189936 -0.0017819327 -0.14411314 -0.0008062417 0.09297897 -0.06191471
-0.008410874 0.03507359 -0.13348445 -0.083744146 -0.12898865 0.10336743 0.03366047 -0.14274801
-0.003627382 -0.19520268 -0.15626937 -0.008663538 0.13571863 -0.16282563 -0.15683179 -0.14534223
0.08589237 0.11052417 0.1868368 -0.07101403 -0.17364429 0.07190754 0.19035953 -0.07112028
0.040430643 -0.024884995 0.13083741 0.01339917 -0.020678673 0.019089384 -0.09615776 0.19031373
-0.03746999 0.18557683 -0.15908077 0.11655294 -0.061195724 0.1434292 -0.1825174 0.14198922
0.06637894 0.119385876 -0.16856231 -0.1223223 0.1518191 0.14175402 -0.16712627 0.11936002
-0.075001985 -0.11881943 0.18621743 -0.02313175 0.14183733 -0.047656827 -0.1090421 0.16535611
0.076348975 -0.17421381 0.21639962 -0.14735778 0.18274805 0.033607442 -0.073161155 0.13148166
0.037540067 -0.12824655 0.12657538 -0.10185517 0.04377755 0.025899015 -0.1592524 -0.17812239
-0.162244 -0.16985 0.17438097 0.08317226 -0.16629335 0.13622528 -0.013377355 -0.17218661
0.06091852 0.037540827 0.25477648 0.2341835 -0.12795666 -0.039738607 0.051402476 -0.03876051
0.221496 0.11117453 0.0071328 -0.001715192 -0.103102036 -0.059459418 -0.19832031 -0.20149787
-0.013854435 -0.082789615 -0.09138159 0.16757585 0.10759829 -0.059590526 0.076745264 -0.0025151586
0.110146806 -0.14929883 0.2556336 0.22114845 0.13548504 -0.10851195 -0.077146426 0.1963109
0.18668011 0.14191645 0.071283855 0.18416516 -0.06267872 0.14328809 -0.013773512 -0.10589321
0.25096354 -0.09119535 0.16332111 0.12513149 0.14917633 0.037683558 -0.17906962 0.20567305
0.004439958 -0.09808781 0.16572326 0.036396008 0.007138208 0.064632736 0.17554659 -0.0648896
0.07125607 -0.17303194 0.0010068737 0.2184102 0.09140861 -0.13046935 -0.06712199 -0.002798392
0.15194462 0.2360676 0.23968484 0.27594602 -0.10386407 -0.016996484 0.19217595 0.07681706
-0.13481967 0.07900919 0.06465047 -0.101423845 -0.04798135 0.1523407 0.074461006 -0.17149557
0.13394384 0.109158754 -0.005502488 -0.03179558 0.10101634 -0.13207279 0.17045364 0.08234784
00000000: a209 0e3e 9687 b9bd 15fa d13b 045d dfbd
00000010: a744 203e 1329 2dbe c60f 153e 3acd 033e
00000020: a6d6 12bd bcc0 0ebe d839 f33c 5b82 83bd
00000030: 9c66 493e 8b92 0c3e dd5b 2fbe 9767 d73d
00000040: 456d 173e 2864 ecbd 36ad 4fbd e9e7 2e3d
00000050: 7960 013e 890f 1bbe 7d51 c6bd 3880 50be
00000060: 5004 3c3e cec2 363e 13aa ecbd 7481 dbbd
00000070: 73d1 46be 511c dbbd 424a 023e 52dd 37be
00000080: 723b 9cbd b6d5 e1bd 972b d13c 90c1 8c3c
00000090: aec4 873d d4cb 723d 427d 88bc cc3a 52be
000000a0: a20b 0d3e 8332 093e a527 103e 21c4 123c
000000b0: c07c 29be 3bda 3fbe 5e60 8d3d af4b 1ebe
000000c0: 1473 a0bd 6367 c63c 520b ff3d c756 e1bc
000000d0: 1ad3 39be 47ed 92bb eda1 da3d 8b3e 0abe
000000e0: 6c80 403e d11d 093e e75f 34be 9040 f4bd
000000f0: 9a63 01be 8ea4 093e bbf7 69ba 46a3 4f3d
00000100: 4b88 9dbd 7268 aabb c347 dc3d d06e 503e
00000110: d731 41be 95c5 4a3e bd09 e83b fcee 0abb
00000120: 0e70 45be 21c3 13be 4924 1fbb 5bd2 0e3e
00000130: 0ade a03d 5ee7 98bd 7e74 d63d f4d7 15bd
00000140: 2a9b bbbb 4ed3 123e 20d0 e7bd bd8f e9ba
00000150: 6592 13be f759 53ba c26b be3d 479a 7dbd
00000160: c3cd 09bc 53a9 0f3d 26b0 08be 0d82 abbd
00000170: 9a15 04be 4eb2 d33d 90df 093d 892c 12be
00000180: 5fb9 6dbb 36e3 47be 1405 20be 83f1 0dbc
00000190: d3f9 0a3e c3bb 26be 8398 20be 98d4 14be
000001a0: 57e8 af3d 7f5a e23d 2552 3f3e ce6f 91bd
000001b0: cfcf 31be 4344 933d 9ced 423e 82a7 91bd
000001c0: 9a9a 253d 9edb cbbc 3efa 053e 3188 5b3c
000001d0: 5266 a9bc 5761 9c3c 5cee c4bd 9ae1 423e
000001e0: 227a 19bd da07 3e3e 12e6 22be 4fb3 ee3d
000001f0: 5ea8 7abd 1bdf 123e d7e5 3abe 9f65 113e
00000200: aff1 873d 9580 f43d 999b 2cbe 1d84 fabd
00000210: 7776 1b3e f727 113e 2623 2bbe 0773 f43d
00000220: a49a 99bd 9a57 f3bd c8af 3e3e cc7e bdbc
00000230: ce3d 113e ce33 43bd 7751 dfbd 1d53 293e
00000240: da5c 9c3d 1b65 32be dd97 5d3e f5e4 16be
00000250: 4e22 3b3e f5a7 093d 84d5 95bd 21a3 063e
00000260: 9dc3 193d 1053 03be fa9c 013e 7299 d0bd
00000270: 1750 333d 2c2a d43c 1013 23be b765 36be
00000280: 4b23 26be 29ed 2dbe ed90 323e 3856 aa3d
00000290: ce48 2abe a47e 0b3e b22c 5bbc b051 30be
000002a0: b385 793d 69c4 193d 1072 823e cdcd 6f3e
000002b0: 1207 03be f3c4 22bd 678b 523d 57c3 1ebd
000002c0: d9cf 623e 79af e33d 43ba e93b 4bd0 e0ba
000002d0: 2927 d3bd b88b 73bd 7b14 4bbe 7555 4ebe
000002e0: b6fd 62bc 9a8d a9bd 4526 bbbd 0199 2b3e
000002f0: 7e5c dc3d 3215 74bd 9f2c 9d3d 5cd5 24bb
00000300: a694 e13d cbe1 18be 68e2 823e bd74 623e
00000310: 97bc 0a3e 833b debd f2fe 9dbd b905 493e
00000320: 1229 3f3e 8c52 113e 45fd 913d cb95 3c3e
00000330: b35d 80bd 1dba 123e 4caa 61bc 8ade d8bd
00000340: 4b7e 803e a1c4 babd a63d 273e 7822 003e
00000350: aec1 183e 135a 1a3d 075e 37be f59b 523e
00000360: 117d 913b 43e2 c8bd 5cb3 293e fb13 153d
00000370: a1e7 e93b 2b5e 843d 7cc2 333e d7e4 84bd
00000380: b4ee 913d 492f 31be 13f9 833a eca6 5f3e
00000390: 7034 bb3d c299 05be 4177 89bd 3a65 37bb
000003a0: 5f97 1b3e b4bb 713e f16f 753e cc48 8d3e
000003b0: afb6 d4bd 363c 8bbc c6c9 443e 4352 9d3d
000003c0: 2b0e 0abe 92cf a13d 7767 843d 4eb7 cfbd
000003d0: 1888 44bd 33ff 1b3e 037f 983d 899c 2fbe
000003e0: 9328 093e a08e df3d 374e b4bb 153c 02bd
000003f0: a8e1 ce3d 173e 07be 668b 2e3e fca5 a83d
