training/output/gesture_model.tflite (tflite, 34712 bytes, 10 tensors)

sequential/conv2d/BiasAdd/ReadVariableOp/resource f4 [8]
-0.00014758228 0.07107595 -0.09731476 0.1274633 0.019282285 -2.7962778e-05 -0.00028636624 -2.907296e-05
00000000: 51c0 1ab9 4590 913d f64c c7bd bd85 023e
00000010: e2f5 9d3c 9c91 eab7 6d23 96b9 b5e1 f3b7

sequential/conv2d_1/BiasAdd/ReadVariableOp/resource f4 [16]
0.009409826 -0.026969457 0.077816285 -0.011413374 -0.061212663 -0.066063635 -0.07262319 0.08296879
0.03551848 0.014025594 -0.086168185 -0.041883122 -0.051824585 0.38735938 0.06339974 -0.018884158
00000000: ac2b 1a3c 0def dcbc 255e 9f3d 29ff 3abc
00000010: 21ba 7abd 5f4c 87bd 78bb 94bd 8aeb a93d
00000020: d37b 113d 9bcb 653c f278 b0bd a38d 2bbd
00000030: 0446 54bd f853 c63e b9d7 813d f3b2 9abc

sequential/conv2d_2/BiasAdd/ReadVariableOp/resource f4 [16]
0.015078364 0.07739263 0.042379826 0.003978102 -0.09234873 -0.06247757 -0.054946005 -0.025721
0.010059924 0.030628035 0.013722619 -0.039113794 -0.0037535164 0.2679496 -0.0106883235 -0.06278059
00000000: 3e0b 773c 0780 9e3d 7896 2d3d bd5a 823b
00000010: 5521 bdbd 7be8 7fbd 100f 61bd d9b4 d2bc
00000020: 61d2 243c a5e7 fa3c d6d4 603c c935 20bd
00000030: 8efd 75bb b130 893e 141e 2fbc 1c93 80bd

sequential/dense/BiasAdd/ReadVariableOp/resource f4 [16]
-0.005869156 -0.0219216 0.08155459 -0.10088774 -0.0037120609 0.2514511 0.015451858 0.11448014
0.07008881 -0.13773394 -0.122546874 -0.0034772707 -0.06915796 -0.030425973 0.20906806 0.025934653
00000000: 0d52 c0bb ed94 b3bc 1806 a73d 3b9e cebd
00000010: 0c46 73bb 33be 803e ca29 7d3c 9074 ea3d
00000020: b98a 8f3d 200a 0dbe dbf9 fabd ece2 63bb
00000030: b0a2 8dbd e43f f9bc f015 563e e974 d43c

sequential/dense_1/BiasAdd/ReadVariableOp/resource f4 [6]
-0.033376858 0.28909412 0.2152826 0.040512938 -0.24185415 -0.26965973
00000000: 2cb6 08bd 2504 943e 0b73 5c3e e5f0 253d
00000010: 9da8 77be d710 8abe

sequential/dense/MatMul f4 [16, 256]
-0.10530181 0.13766728 -0.026774934 0.083981834 0.11727495 0.063627765 0.10910707 0.033898678
-0.10197555 -0.107981585 -0.124641754 0.0652674 0.09257608 0.011639234 0.119579695 -0.03709347
-0.03715287 -0.0012333519 -0.048597097 0.07294061 -0.15161365 -0.1395277 0.10566225 -0.016428778
-0.0036718026 0.072738394 -0.14995636 0.05626253 0.061083756 -0.114708796 -0.12965673 -0.14100425
-0.034025475 0.000744433 0.09996966 -0.13314007 0.12431152 0.13022481 -0.040917993 0.0650744
-0.12798353 -0.14586523 0.08156099 0.081306405 -0.033898048 -0.0118134385 -0.14792429 -0.008726298
-0.124491245 -0.13333814 -0.13521223 0.0017090993 -0.013545047 0.06637412 -0.041258853 -0.03520948
0.011311007 -0.14676581 -0.11866385 -0.031112632 0.12676267 -0.100496635 -0.1441269 0.00995882
-0.0132535 -0.03636258 0.14298503 0.04949959 -0.1371124 0.092421055 0.088036746 -0.14301762
-0.12508272 -0.011430924 0.026640069 -0.09220385 0.06454747 0.07854192 -0.13446662 0.14222
-0.009339693 -0.13360736 0.060091797 -0.14948739 0.13063696 0.03359548 -0.0106836045 -0.041387357
0.10609607 -0.013563935 0.13513154 0.10161947 -0.04324452 -0.019427558 -0.0928182 0.032795824
-0.030897878 0.012240916 0.14183845 -0.027212752 -0.017158704 -0.08899929 -0.12460487 -0.029874062
0.11724358 -0.10439709 0.14799473 0.09456356 -0.11576773 0.12607776 0.14970753 -0.08404223
0.002416818 -0.14783034 -0.11286289 0.018467646 0.104063496 -0.03875191 0.032608517 -0.048364855
0.12702417 0.10403736 -0.06325222 -0.009336499 -0.10527848 0.08641431 0.06603377 -0.067327745
0.15399025 0.09746433 -0.006068019 -0.111490324 0.018585855 -0.085297905 -0.032393802 0.11584622
0.1169986 -0.12850392 -0.053027865 -0.06815222 0.08636564 0.011937833 -0.13455808 0.034489334
0.11800636 0.039796937 0.068036415 0.11004084 -0.0074391183 0.068516985 -0.14584264 0.011227795
0.056241963 -0.14146137 0.043489184 -0.07969477 -0.086956434 -0.035628174 0.07948569 -0.13804044
-0.14838585 -0.14781667 -0.053121593 0.035942584 -0.11645517 -0.09529573 0.037170768 -0.024984827
0.026588596 0.14126399 -0.082096204 0.1417731 0.12704504 0.077154934 -0.1058076 -0.018566161
-0.12555477 -0.016562661 0.14951138 0.10887654 -0.020983597 -0.111077294 0.011011122 0.045214616
0.12072712 0.05691913 0.084822245 0.05711248 -0.038164526 -0.14479287 -0.050198033 -0.0024500396
0.138112 0.0086566545 0.061574765 -0.030361606 -0.0036914146 -0.030308286 -0.09781926 -0.00255375
-0.12802759 0.07699413 -0.10572927 0.088215046 -0.110601336 0.01007571 0.117716596 0.06261814
-0.0103902705 0.115233175 -0.11398531 0.0024803798 0.089464396 0.039315317 -0.12607028 -0.036161568
0.0525531 -0.06355873 -0.009069348 -0.115466684 0.057948325 0.038480375 0.12635563 -0.14094025
0.012031286 0.14866883 0.13636392 0.09830951 -0.0033987984 -0.043860808 -0.10629371 -0.019179052
-0.086400665 -0.12990698 -0.016259138 -0.06846211 -0.023125488 0.049759023 0.02597225 0.02090874
0.036082983 0.026646206 -0.09158692 -0.021414507 0.046145134 0.09317803 -0.10834082 -0.0051194765
-0.13563967 -0.06097651 -0.074586526 0.13893658 -0.14200369 -0.05935337 -0.12182154 0.00025653088
00000000: 7aa8 d7bd a7f8 0c3e 1b57 dbbc abfe ab3d
00000010: d92d f03d 464f 823d 8773 df3d 57d9 0a3d
00000020: 8fd8 d0bd 7325 ddbd 2d44 ffbd eaaa 853d
00000030: 8798 bd3d 7cb2 3e3c 33e6 f43d 53ef 17bd
00000040: 9c2d 18bd 6ca8 a1ba c00d 47bd e361 953d
00000050: 9c40 1bbe 59e0 0ebe 7365 d83d a595 86bc
00000060: a0a2 70bb def7 943d 298e 19be 8a73 663d
00000070: f632 7a3d 72ec eabd bcc4 04be 6b63 10be
00000080: 4c5e 0bbd 0e26 433a e5bc cc3d df55 08be
00000090: 0a97 fe3d a759 053e a099 27bd ba45 853d
000000a0: 1d0e 03be b25d 15be 7309 a73d f983 a63d
000000b0: aed8 0abd 278d 41bc 7779 17be bff8 0ebc
000000c0: 44f5 febd cb89 08be 1375 0abe db03 e03a
000000d0: 0bec 5dbc 28ef 873d 0bff 28bd d137 10bd
000000e0: cd51 393c c749 16be 0806 f3bd ebdf febc
000000f0: 13ce 013e 2ed1 cdbd 0196 13be 522a 233c
00000100: 3525 59bc eef0 14bd ab6a 123e 15c0 4a3d
00000110: 3167 0cbe 4047 bd3d 9c4c b43d 3673 12be
00000120: af15 00be c548 3bbc 463c da3c 5fd5 bcbd
00000130: 7731 843d 96da a03d 9eb1 09be 1fa2 113e
00000140: 8305 19bc 5ed0 08be d122 763d 3913 19be
00000150: b2c5 053e 6a9b 093d 490a 2fbc ca85 29bd
00000160: e548 d93d 443b 5ebc ec5f 0a3e de1d d03d
00000170: 2a21 31bd 8b26 9fbc 7817 bebd ea54 063d
00000180: 8c1d fdbc 1f8e 483c 193e 113e 47ed debc
00000190: 6990 8cbc 4245 b6bd d730 ffbd 73ba f4bc
000001a0: 671d f03d 24ce d5bd ee8b 173e 8aaa c13d
000001b0: a217 edbd 871a 013e ee4c 193e 551e acbd
000001c0: 7a63 1e3b d660 17be a924 e7bd 7649 973c
000001d0: 3e1f d53d 53ba 1ebd 8290 053d 3a1a 46bd
000001e0: a012 023e 8a11 d53d 618a 81bd 1df8 18bc
000001f0: 3e9c d7bd fcf9 b03d b73c 873d 21e3 89bd
00000200: 9faf 1d3e 619b c73d 3cd6 c6bb 0a55 e4bd
00000210: 5d41 983c abb0 aebd 5daf 04bd c840 ed3d
00000220: f69c ef3d 8896 03be bf33 59bd 6493 8bbd
00000230: 78e0 b03d e796 433c 98c9 09be b044 0d3d
00000240: 52ad f13d 1d02 233d ad56 8b3d 185d e13d
00000250: d9c3 f3bb a252 8c3d c657 15be c9f4 373c
00000260: f95d 663d 40db 10be b721 323d 0337 a3bd
00000270: 3716 b2bd d9ee 11bd 65c9 a23d 795a 0dbe
00000280: 76f2 17be 415d 17be 0796 59bd 8838 133d
00000290: 0c80 eebd 682a c3bd 6040 183d fbac ccbc
000002a0: 54d0 d93c 82a7 103e 0e22 a8bd f82c 113e
000002b0: 1818 023e 6803 9e3d a8b1 d8bd 1018 98bc
000002c0: 6e91 00be 6bae 87bc 8319 193e aafa de3d
000002d0: cbe5 abbc 7e7c e3bd fe67 343c f632 393d
000002e0: c83f f73d 0924 693d 49b7 ad3d c7ee 693d
000002f0: 6852 1cbd 9544 14be 749c 4dbd d890 20bb
00000300: 3b6d 0d3e a4d4 0d3c d235 7c3d e7b8 f8bc
00000310: a9eb 71bb 1549 f8bc 7755 c8bd d15c 27bb
00000320: aa19 03be 19af 9d3d 9688 d8bd 17aa b43d
00000330: f482 e2bd 9714 253c 6615 f13d f03d 803d
00000340: f43b 2abc 5fff eb3d 2171 e9bd de8d 223b
00000350: 1c39 b73d 1909 213d 9118 01be 271e 14bd
00000360: eb41 573d 142b 82bd 9a97 14bc cc79 ecbd
00000370: 395b 6d3d 999d 1d3d 5f63 013e a452 10be
00000380: df1e 453c a43c 183e fca2 0b3e 7f56 c93d
00000390: 60be 5ebb 64a7 33bd 84b0 d9bd 631d 9dbc
000003a0: d5f2 b0bd 5606 05be e231 85bc dd35 8cbd
000003b0: aa71 bdbc 1ed0 4b3d c2c3 d43c ce48 ab3c
000003c0: c0cb 133d 2549 da3c ec91 bbbd 7a6d afbc
000003d0: ae02 3d3d 1fd4 be3d cbe1 ddbd 48c1 a7bb
000003e0: 20e5 0abe 81c2 79bd d2c0 98bd 6445 0e3e
000003f0: 6a69 11be 851c 73bd 927d f9bd fe7e 8639

sequential/dense_1/MatMul f4 [6, 16]
-0.14908719 0.66219056 0.26504073 0.76330155 0.47131252 -0.07764076 0.083043486 -0.48141894
-0.106386274 -0.549762 -0.42958382 -0.27644894 0.12712066 0.12502952 -0.3279373 0.037331562
0.01505299 0.10472793 0.36313638 -0.16909662 0.4473892 0.7833635 0.33238748 0.21636453
0.07258981 -0.55624855 -0.1876311 0.048273906 -0.6281785 0.1157749 0.767548 -0.053065814
-0.32047698 -0.3748099 0.20788477 -0.39804634 -0.04168468 -0.07378773 -0.31391373 -0.19781831
0.7401159 -0.58279175 -0.57016206 -0.45434585 0.6518991 -0.12571126 -0.5622306 0.17027378
-0.46478793 0.18049017 -0.32981217 -0.7602569 0.5591238 -0.24973981 0.3538869 0.18109825
0.35899916 0.35194358 -0.08528165 -0.29733104 0.5725375 -0.22075996 0.1894272 -0.16788591
-0.41834897 0.24001458 0.36602265 0.2681959 0.0009517727 -0.44203568 0.17300512 -0.49754432
-0.3314091 -0.3328957 0.4916723 0.15787798 0.5745963 0.2137653 0.40157282 -0.33422112
-0.50958943 0.38189003 -0.2210693 0.30499125 0.3997599 -0.03783898 0.164444 0.050888564
0.5281807 0.09314977 0.27630213 0.38428044 -0.15362531 0.38743663 -0.25284368 -0.46940127
00000000: 50aa 18be 5285 293f 6bb3 873e bb67 433f
00000010: e04f f13e 1e02 9fbd b412 aa3d 8b7c f6be
00000020: 0ce1 d9bd 34bd 0cbf 69f2 dbbe b78a 8dbe
00000030: eb2b 023e bd07 003e 66e7 a7be fbe8 183d
00000040: d1a0 763c 997b d63d 03ed b93e aa27 2dbe
00000050: 3210 e53e 838a 483f b12e aa3e aa8e 5d3e
00000060: f7a9 943d 4e66 0ebf 5e22 40be dcba 453d
00000070: 4ed0 20bf 641b ed3d 077e 443f 8a5b 59bd
00000080: 8f15 a4be 15e7 bfbe bfdf 543e bbcc cbbe
00000090: 8ebd 2abd 051e 97bd 4db9 a0be e290 4abe
000000a0: 3c78 3d3f d731 15bf 24f6 11bf 05a0 e8be
000000b0: dce2 263f 74ba 00be 58ee 0fbf 405c 2e3e
000000c0: aff8 edbe 6ad2 383e 24dd a8be 32a0 42bf
000000d0: bd22 0f3f cbbb 7fbe aa30 b53e d271 393e
000000e0: bdce b73e f331 b43e 25a8 aebd c63b 98be
000000f0: d191 123f e60e 62be 34f9 413e 49ea 2bbe
00000100: d631 d6be 62c6 753e 5267 bb3e f950 893e
00000110: 6280 793a 8052 e2be 4128 313e 21be febe
00000120: 74ae a9be 4e71 aabe 79bc fb3e c4aa 213e
00000130: be18 133f 4ae5 5a3e f49a cd3e 081f abbe
00000140: 7474 02bf 1787 c33e fe5f 62be d027 9c3e
00000150: 54ad cc3e 0cfd 1abd 0264 283e 8770 503d
00000160: da36 073f 4ec5 be3d 7977 8d3e 68c0 c43e
00000170: f44f 1dbe 185e c63e ba74 81be 5d55 f0be

sequential/conv2d/Conv2D f4 [8, 3, 3, 1]
0.9320472 0.3038241 0.23565178 -0.62369573 0.38826844 0.028207175 -0.05957286 0.51898545
-0.027679607 -0.3288098 -0.56096745 0.23954844 0.551221 -0.61823153 0.6726042 -0.45919585
-0.7481323 -0.33545744 -0.17670614 0.6025655 -0.17272666 -0.72809184 -0.55122024 -0.65315175
-0.7147827 0.14214306 0.59693056 0.717192 -0.6277905 0.29185405 0.27297622 -0.42949164
-0.5018664 0.66697705 1.0344167 0.11238956 0.7210982 -0.71425664 -0.6423884 -0.32306483
0.82599264 0.115925685 0.31198204 -0.34397846 -0.58594877 -0.10298784 0.6345216 -0.22452174
0.9879115 -0.62657243 -0.71774006 0.7521012 0.12386386 0.14847122 0.13129218 -0.14407434
0.99330455 0.35963264 -0.18474331 -0.6462351 0.9451998 -0.32561797 0.94841963 -0.083066575
0.42610306 -0.50778764 -0.10459622 -0.29857183 -0.53484017 0.46141127 -0.61048156 0.2460072
00000000: a59a 6e3f d58e 9b3e b34e 713e 86aa 1fbf
00000010: 1fcb c63e bc12 e73c ac02 74bd 3bdc 043f
00000020: 58c0 e2bc c259 a8be 909b 0fbf 304c 753e
00000030: d21c 0d3f 6c44 1ebf ca2f 2c3f b81b ebbe
00000040: 9985 3fbf 14c1 abbe 74f2 34be bc41 1a3f
00000050: 42df 30be 3a64 3abf c51c 0dbf f434 27bf
00000060: 00fc 36bf f38d 113e 71d0 183f e599 373f
00000070: e1b6 20bf e56d 953e 8ac3 8b3e 54e6 dbbe
00000080: 517a 00bf 02bf 2a3f c467 843f 7f2c e63d
00000090: e499 383f 86d9 36bf 9173 24bf c168 a5be
000000a0: 4174 533f 726a ed3d 1cbc 9f3e f21d b0be
000000b0: bd00 16bf 4aeb d2bd 0270 223f 07e9 65be
000000c0: c5e7 7c3f 0d67 20bf d0bd 37bf b489 403f
000000d0: 56ac fd3d d708 183e 7571 063e 3988 13be
000000e0: 3549 7e3f c521 b83e 5a2d 3dbe aa6f 25bf
000000f0: 9df8 713f 66b7 a6be a1cb 723f cf1e aabd
00000100: 2e2a da3e 5ffe 01bf 8b36 d6bd 68de 98be
00000110: 49eb 08bf 193e ec3e 8548 1cbf 50e9 7b3e

sequential/conv2d_1/Conv2D f4 [16, 3, 3, 8]
-0.022882817 0.12769611 0.048611715 0.08734408 0.232242 -0.17805782 0.114545606 -0.069441244
-0.14219113 -0.17336296 -0.0008214502 -0.21933018 0.011188585 -0.20546392 0.24182752 -0.17021435
-0.1669834 0.20776674 0.088824764 -0.100042574 -0.20471886 -0.21746318 -0.16325584 -0.06787519
0.1609756 0.15034565 0.04012087 0.05321386 0.044979736 -0.21987246 0.23238435 -0.08533657
-0.001602725 0.13617666 0.04094158 0.0022193315 0.2052806 -0.20987631 0.07192053 -0.15853673
-0.0074919537 -0.06271114 -0.2457601 -0.28112566 -0.056863606 -0.092204295 -0.17514877 -0.24447992
-0.090552166 0.14214742 -0.08636346 -0.065624796 0.29226387 0.122514814 -0.20845808 -0.06673283
0.19934814 -0.19615969 -0.14107959 -0.2165605 0.029489111 -0.18113482 -0.0015662247 -0.10598636
0.14936303 0.03724276 -0.26206288 0.17113201 0.128313 -0.12450035 -0.21644601 0.10324403
-0.19981961 -0.13360226 0.115350746 -0.0021842658 -0.12250395 0.21864732 0.12641296 0.20053342
0.10705736 0.23647945 -0.2903764 -0.13438295 0.00744062 0.101365425 -0.21662074 -0.014061988
0.2564991 -0.28332046 -0.2671866 -0.029297851 -0.0051908297 -0.053632814 -0.27275482 -0.22367871
-0.122387014 -0.2556642 0.0006153537 -0.20968919 -0.116751075 -0.02022748 0.2280438 0.06559161
-0.29826587 0.21782348 -0.11382025 -0.11976621 -0.29015252 0.22642353 -0.22850034 0.13953945
-0.108984604 -0.22275986 0.28257903 0.19994555 -0.120361224 -0.28531045 0.21023329 -0.16895188
-0.22706577 0.26953065 0.050027665 -0.18659496 0.09121907 0.16282985 -0.004423523 0.26903746
0.057713617 0.20005149 0.2530144 0.15790686 -0.24628913 0.174528 -0.26912034 0.17188041
0.23028092 0.17758255 -0.24226996 0.13140085 0.01024142 -0.21012858 -0.2679759 0.10520518
-0.13094932 -0.084742986 0.29133272 0.054171957 0.13598378 0.11604731 0.068375416 0.066411965
-0.23727185 -0.12061336 -0.28085548 -0.08252609 0.21657759 -0.31656548 -0.23949789 0.15280628
0.23781103 0.12933014 0.115268946 -0.10131475 -0.040574312 0.14263038 0.3664322 0.2634838
0.19906054 -0.081560954 0.06482552 -0.07793642 0.28893548 0.12090672 0.28315717 -0.10360104
-0.1742265 0.10891559 0.20830904 0.16431339 0.049614273 0.22002292 0.028779678 -0.13553996
0.09273121 0.2664369 -0.15967578 -0.12270474 -0.120296404 0.044537142 0.105713576 -0.070901625
0.14451465 0.3383399 -0.19388865 0.13182265 0.23450954 0.2237776 0.10960627 0.16678995
0.25675896 0.10945682 -0.06854617 0.07869196 0.05737373 -0.013067937 0.260989 -0.10188669
0.23801179 -0.12649064 0.054764975 -0.17310305 -0.0339925 -0.021072371 0.09815853 0.0965588
-0.11401501 -0.2494638 -0.099750325 -0.27863947 -0.022825154 -0.17593674 0.24908297 0.07509622
0.05718934 -0.15494968 0.18066955 0.058445018 0.08858638 -0.0648443 -0.2562727 0.14837304
-0.06643046 -0.20194286 -0.073103495 0.05743775 0.13299783 -0.23308012 0.23671503 -0.18834811
0.061744347 0.101038285 -0.25252676 -0.20471165 -0.15168847 0.27274632 0.21552528 -0.05176486
0.06314007 0.10918845 0.17131795 -0.21150419 0.08551882 -0.085223384 0.026544174 -0.0415702
00000000: bf74 bbbc c5c2 023e 141d 473d 74e1 b23d
00000010: d9d0 6d3e ca54 36be e396 ea3d 3637 8ebd
00000020: 8d9a 11be 0f86 31be 9756 57ba 1798 60be
00000030: 5450 373c 2265 52be a2a1 773e ac4c 2ebe
00000040: b2fd 2abe cec0 543e c2e9 b53d 1fe3 ccbd
00000050: d2a1 51be abae 5ebe 8a2c 27be 2602 8bbd
00000060: cad6 243e 36f4 193e c855 243d c7f6 593d
00000070: ac3c 383d 3f26 61be 2af6 6d3e f1c4 aebd
00000080: 8712 d2ba e571 0b3e 5cb2 273d 3472 113b
00000090: 1435 523e d1e9 56be 124b 933d 7457 22be
000000a0: 107f f5bb b36e 80bd 89a8 7bbe b4ef 8fbe
000000b0: d0e9 68bd 9bd5 bcbd 335a 33be f258 7abe
000000c0: 6a73 b9bd 188f 113e 53df b0bd 4b66 86bd
000000d0: 9ca3 953e 0ce9 fa3d 0976 55be 39ab 88bd
000000e0: eb21 4c3e 16de 48be 2b77 10be 09c2 5dbe
000000f0: 2693 f13c 687b 39be c849 cdba 600f d9bd
00000100: 9ff2 183e dd8b 183d 1b2d 86be 3b3d 2f3e
00000110: 7c64 033e 0afa febd 06a4 5dbe 9b71 d33d
00000120: 839d 4cbe 08cf 08be 033d ec3d e625 0fbb
00000130: 5ae3 fabd 15e5 5f3e 6672 013e a258 4d3e
00000140: e440 db3d ab27 723e 37ac 94be af9b 09be
00000150: 72d0 f33b ad98 cf3d d4d1 5dbe 4164 66bc
00000160: da53 833e 610f 91be afcc 88be 0c02 f0bc
00000170: d617 aabb 15ae 5bbd 85a6 8bbe 080c 65be
00000180: 0ba6 fabd 6be6 82be b04f 213a c3b8 56be
00000190: 301b efbd 1ab4 a5bc 5084 693e e554 863d
000001a0: 4eb6 98be 1e0d 5f3e 971a e9bd fd47 f5bd
000001b0: df8e 94be 92db 673e fefb 69be 6ee3 0e3e
000001c0: 5233 dfbd 291b 64be 33ae 903e 87be 4c3e
000001d0: f27f f6bd 3614 92be 6547 573e b901 2dbe
000001e0: ee83 68be ecff 893e cfe9 4c3d c012 3fbe
000001f0: 10d1 ba3d debc 263e 33f3 90bb 47bf 893e
00000200: 1d65 6c3d 4cda 4c3e 1a8b 813e 56b2 213e
00000210: 3833 7cbe 78b7 323e 24ca 89be 6b01 303e
00000220: c3ce 6b3e 33d8 353e 9e15 78be f28d 063e
00000230: a1cb 273c f22b 57be 2334 89be d075 d73d
00000240: 9417 06be bb8d adbd 9029 953e 6ae3 5d3d
00000250: 553f 0b3e 36aa ed3d 6908 8c3d ff02 883d
00000260: 64f7 72be 2304 f7bd 4acc 8fbe 7003 a9bd
00000270: 84c6 5d3e df14 a2be ef3e 75be 4079 1c3e
00000280: bc84 733e 1f6f 043e 2012 ec3d 1c7e cfbd
00000290: 4031 26bd b30d 123e 009d bb3e 59e7 863e
000002a0: 87d6 4b3e 6e09 a7bd 3ec3 843d 219d 9fbd
000002b0: 5aef 933e f19d f73d faf9 903e c82c d4bd
000002c0: 6e68 32be 230f df3d f74e 553e c541 283e
000002d0: 5638 4b3d b04d 613e 5cc3 eb3c fdca 0abe
000002e0: dce9 bd3d 6b6a 883e 0c82 23be 9f4c fbbd
000002f0: f65d f6bd 946c 363d 5c80 d83d df34 91bd
00000300: a6fb 133e e33a ad3e bf8a 46be 84fc 063e
00000310: 4523 703e f525 653e 4179 e03d fcca 2a3e
00000320: e975 833e e62a e03d ef61 8cbd 4029 a13d
00000330: b700 6b3d e71a 56bc 5aa0 853e f8a9 d0bd
00000340: 5db9 733e c386 01be 3d51 603d ed41 31be
00000350: b83b 0bbd f79f acbc 5707 c93d 9fc0 c53d
00000360: b480 e9bd 7073 7fbe e649 ccbd d5a9 8ebe
00000370: d1fb babc c328 34be 9b0f 7f3e 0ccc 993d
00000380: 5f3f 6a3d 21ab 1ebe 7001 393e 0b64 6f3d
00000390: c76c b53d 17cd 84bd 2d36 83be 1aef 173e
000003a0: b10c 88bd 1cca 4ebe 49b7 95bd d943 6b3d
000003b0: 9530 083e 8eac 6ebe 6d65 723e 54de 40be
000003c0: a4e7 7c3d 29ed ce3d 304b 81be ee9f 51be
000003d0: 3954 1bbe 68a5 8b3e a9b2 5c3e 6407 54bd
000003e0: 954f 813d 329e df3d f96d 2f3e 8e94 58be
000003f0: 7e24 af3d 9989 aebd 2b73 d93c 8445 2abd

sequential/conv2d_2/Conv2D f4 [16, 3, 3, 16]
0.19136631 0.09779869 -0.040465366 -0.18189107 0.0085322615 0.07062258 0.14220965 0.011555519
0.044979505 -0.17555821 0.16144846 0.06153659 -0.057694998 0.21445176 -0.13767123 0.0760778
-0.18304017 0.01870067 0.19815677 0.18913856 -0.11684819 0.02374422 0.031871486 0.0014673306
0.074273795 -0.16522413 0.04447834 0.08279435 0.04066183 -0.10754229 -0.14236411 -0.14620811
-0.09440684 -0.08837043 0.18556578 -0.0021291545 0.15518692 0.07645026 0.38376027 0.058665514
0.009731655 0.07669481 0.0008111858 0.023274994 0.013493703 -0.17567019 -0.040500455 0.2300718
0.008861478 0.025857551 0.1764675 0.029565135 0.1850194 -0.12939844 0.19793363 0.1278626
0.23836651 0.010451696 0.089657895 -0.13611895 -0.113782205 0.12207164 0.18457818 0.23131308
0.07218229 0.14177546 -0.14017065 0.10256452 0.100656 -0.2196458 0.18671937 -0.16016117
-0.18569532 0.011710294 -0.08678661 0.08410631 0.016788814 0.10643249 -0.1389246 -0.10344352
-0.05738882 0.008324864 -0.062108066 -0.05926237 0.20342816 -0.07618729 0.2050832 -0.07832961
0.13759726 -0.01646674 -0.023351585 0.19864438 0.12182009 0.18651314 0.19287135 0.07318184
0.17807302 -0.017961567 -0.041219186 0.028844668 0.07608188 -0.14518851 -0.17891048 -0.13837646
-0.117629364 -0.15657689 0.01206429 -0.11805254 0.19200186 0.22404556 -0.032071106 0.11067827
-0.15519011 0.16768754 -0.012041558 -0.18699658 0.20536345 -0.029582568 -0.20915309 0.02223903
0.10485066 0.15920722 0.035840865 -0.030445058 0.1814599 -0.0977428 -0.15262978 -0.1634997
-0.12921086 0.02018252 0.22304246 -0.117736965 -0.08747151 -0.07433831 0.0036365204 -0.19134723
0.20324495 0.029801914 -0.1277823 -0.013614223 -0.055421066 -0.03950761 0.026598422 0.0650556
-0.17007568 0.1373367 -0.13350116 -0.13748212 0.005223981 -0.09303875 -0.12307217 0.095861904
0.003665374 0.10084473 0.0659396 -0.16155998 0.08141077 -0.022507697 0.18952362 0.076474816
0.048975654 -0.16559146 -0.031158542 -0.1269739 -0.0026851357 0.028132742 -0.028085768 -0.012123302
0.22378403 -0.18827832 0.19918793 -0.01902068 -0.13332562 0.18573079 0.14868924 0.07868051
-0.077396415 0.011354552 -0.12792991 0.11832009 0.20810495 -0.06485115 0.06606854 -0.12549207
0.14308247 0.21358941 0.21500161 -0.18590163 -0.09404877 -0.042908803 0.03308012 -0.11067004
0.20651841 0.02185757 -0.04063677 0.1827344 0.13773306 -0.090980045 0.05832172 -0.12592559
0.01861483 -0.13288523 0.18526198 0.051435113 0.011288569 0.021404836 0.030737987 0.23258707
0.08741143 -0.11584122 0.22200097 0.084905304 -0.07375089 0.021154251 0.20527352 -0.042822022
0.107613236 0.19782911 0.07676334 0.05458922 0.14471437 0.15885231 0.14841309 0.14115164
-0.008576558 0.06389851 -0.047957856 -0.06652877 -0.14462301 -0.05198788 0.034574613 0.17018382
0.088282555 0.06905825 0.13588691 -0.037774254 -0.00024029597 -0.15727697 0.22039473 0.03799498
-0.13340919 -0.19769947 0.14208789 0.16449311 -0.14301695 -0.0031714998 0.18068427 -0.082088746
-0.113364756 -0.115792245 0.14875731 0.14277649 -0.1353505 0.17719367 -0.064854704 0.249228
00000000: 88f5 433e ae4a c83d 03bf 25bd a741 3abe
00000010: e6ca 0b3c 92a2 903d 689f 113e 5c53 3d3c
00000020: 6e3c 383d 88c5 33be bf52 253e cb0d 7c3d
00000030: 9751 6cbd 3e99 5b3e b0f9 0cbe adce 9b3d
00000040: e26e 3bbe 2632 993c 9ce9 4a3e 8aad 413e
00000050: 1b4e efbd 3d83 c23c ad8b 023d 7253 c03a
00000060: dc1c 983d 8430 29be eb2e 363d 1690 a93d
00000070: 058d 263d 223f dcbd e6c7 11be 94b7 15be
00000080: 6058 c1bd 8efb b4bd f504 3e3e 4989 0bbb
00000090: 52e9 1e3e f491 9c3d 3a7c c43e 404b 703d
000000a0: 8571 1f3c 2b12 9d3d c2a5 543a 33ab be3c
000000b0: b114 5d3c e3e2 33be cee3 25bd f197 6b3e
000000c0: bc2f 113c 37d3 d33c e5b3 343e 9532 f23c
000000d0: ba75 3d3e 0681 04be 1daf 4a3e 6aee 023e
000000e0: 5a16 743e 973d 2b3c 8f9e b73d c462 0bbe
000000f0: a506 e9bd b200 fa3d 1002 3d3e 56dd 6c3e
00000100: 4fd4 933d 962d 113e e588 0fbe 590d d23d
00000110: bc24 ce3d d4ea 60be 5d33 3f3e 4a01 24be
00000120: ea26 3ebe 88dc 3f3c 2ebd b1bd ee3f ac3d
00000130: b288 893c 47f9 d93d 4042 0ebe 32da d3bd
00000140: 8a10 6bbd 0365 083c 0765 7ebd 19bd 72bd
00000150: 794f 503e 1508 9cbd 5501 523e 466b a0bd
00000160: 4ce6 0c3e 42e5 86bc d34b bfbc 6f69 4b3e
00000170: d07c f93d 4dfd 3e3e 1180 453e 5ce0 953d
00000180: c658 363e 2324 93bc 73d5 28bd a74b ec3c
00000190: d1d0 9b3d 4cac 14be 4f34 37be 8fb2 0dbe
000001a0: aae7 f0bd b155 20be 4da9 453c 88c5 f1bd
000001b0: 239c 443e 336c 653e fe5c 03bd 4aab e23d
000001c0: 28ea 1ebe 48b6 2b3e f449 45bc 087c 3fbe
000001d0: cc4a 523e 2457 f2bc 3a2c 56be a02e b63c
000001e0: f1bb d63d 3807 233e dfcd 123d ea67 f9bc
000001f0: a0d0 393e 612d c8bd fb4a 1cbe 776c 27be
00000200: da4f 04be d055 a53c 3e65 643e 1420 f1bd
00000210: 4324 b3bd af3e 98bd b052 6e3b 87f0 43be
00000220: 721f 503e 2523 f43c 5dd9 02be 310e 5fbc
00000230: 3301 63bd bbd2 21bd efe4 d93c df3b 853d
00000240: 5228 2ebe fea1 0c3e 87b4 08be 1dc8 0cbe
00000250: ee2d ab3b 1a8b bebd 430d fcbd 3f53 c43d
00000260: c536 703b af87 ce3d 570b 873d fb6f 25be
00000270: b1ba a63d 1062 b8bc 7b12 423e d49e 9c3d
00000280: b29a 483d cf90 29be 3340 ffbc 7205 02be
00000290: 1af9 2fbb a376 e63c 2014 e6bc d0a0 46bc
000002a0: a427 653e 08cc 40be ecf7 4b3e 42d1 9bbc
000002b0: 8386 08be 3630 3e3e fe41 183e 3f23 a13d
000002c0: 0382 9ebd 7108 3a3c 0f00 03be ce51 f23d
000002d0: 7719 553e aed0 84bd f14e 873d fe80 00be
000002e0: 3684 123e 2fb7 5a3e 6229 5c3e ff5c 3ebe
000002f0: a49c c0bd 24c1 2fbd 057f 073d f9a6 e2bd
00000300: 9079 533e a60e b33c be72 26bd ba1e 3b3e
00000310: e509 0d3e bf53 babd c2e2 6e3d a3f2 00be
00000320: 217e 983c 1113 08be 51b5 3d3e a0ad 523d
00000330: b1f3 383c 3259 af3c 3bce fb3c 4e2b 6e3e
00000340: c404 b33d 293e edbd 3954 633e d5e2 ad3d
00000350: b50a 97bd ae4b ad3c 3933 523e 2566 2fbd
00000360: 5464 dc3d b793 4a3e 1936 9d3d f298 5f3d
00000370: 0130 143e 2eaa 223e 9af9 173e 0e8a 103e
00000380: b184 0cbc 39dd 823d 756f 44bd 3c40 88bd
00000390: 0e18 14be 3ef1 54bd 1c9e 0d3d ab44 2e3e
000003a0: 7ccd b43d 696e 8d3d f025 0b3e 2db9 1abd
000003b0: f5f7 7bb9 370d 21be 28af 613e a0a0 1b3d
000003c0: 6b9c 08be bb71 4abe 7d7f 113e e270 283e
000003d0: 0973 12be f0d8 4fbb 4c05 393e 251e a8bd
000003e0: c82b e8bd 7c24 edbd d653 183e 0034 123e
000003f0: 5299 0abe 4272 353e 8bd2 84bd a035 7f3e
