training/output/gesture_model.tflite (tflite, 34772 bytes, 10 tensors)

sequential/conv2d/BiasAdd/ReadVariableOp/resource f4 [8]
000000 71 45 75 3d fa a9 43 3e 7d 2d f5 3d 35 ee 46 b8
       0.059880678 0.1910781 0.11971567 -4.7428726e-05
000010 d0 20 72 3e c4 55 07 3e 9d a5 8c 3e 42 81 db b8
       0.2364533 0.1321631 0.27470103 -0.0001046681

sequential/conv2d_1/BiasAdd/ReadVariableOp/resource f4 [16]
000000 ed 84 e9 3d 13 f5 8b 3d 0f 92 13 3e 1d 2c 09 3d
       0.11402307 0.068338536 0.14411186 0.033489335
000010 8a 88 f7 bc 6e 1b 2e 3d ab a9 21 3c 60 9e a8 3c
       -0.030216474 0.042506628 0.009867112 0.020583332
000020 eb 6b 0c 3d b2 83 1e 3d ce 21 7a 3d 9a a7 35 3c
       0.034282606 0.038699813 0.061067395 0.011087323
000030 fc f0 ff ba 65 41 c8 3c 57 da fc 3a 16 21 26 3d
       -0.0019526775 0.024445245 0.0019291145 0.040558897

sequential/conv2d_2/BiasAdd/ReadVariableOp/resource f4 [16]
000000 6b 4c b0 bc a2 dc 0c bc 9e 5b 69 bb 46 3e 4d bd
       -0.021520814 -0.008597525 -0.0035607587 -0.050108217
000010 02 c7 85 3d 24 05 ee 3d b0 57 fc 3c ce 2b 04 3d
       0.06532098 0.11622074 0.030803531 0.032268338
000020 a9 cd f5 bc 0f 81 42 bd dc bd 19 3d 1a 67 36 bc
       -0.030005293 -0.04748636 0.03753458 -0.01113298
000030 ad 04 da bc 84 35 4f bd 9f f0 20 bd a7 fa 31 3e
       -0.026613558 -0.050588146 -0.039291974 0.17380773

sequential/dense/BiasAdd/ReadVariableOp/resource f4 [16]
000000 2a 61 cf 3c 4e 4b 65 bd 45 f2 be bb ee 74 a8 3d
       0.025314886 -0.05598002 -0.0058272206 0.082254276
000010 c9 04 76 bc 04 d9 99 bd 7d ff e7 3b eb 3b 2e bd
       -0.015015789 -0.075120956 0.007080017 -0.04253761
000020 b5 7d 6a bd 0f 7e 15 3d 85 9f 0e 3d 08 91 f2 bd
       -0.05724879 0.036497172 0.0348201 -0.11844069
000030 01 04 c6 bc 96 fc 96 bb 42 b1 a4 bd 94 f0 9f 3d
       -0.024171831 -0.0046077473 -0.08041622 0.078095585

sequential/dense_1/BiasAdd/ReadVariableOp/resource f4 [7]
000000 8b df 8c bd 2d 20 38 bd bc c8 66 bc 40 8c 2f 3e
       -0.06878575 -0.04495256 -0.014085945 0.17143345
000010 c1 4d 52 3e 6e 04 53 be f7 c5 2f bd
       0.20537473 -0.20607159 -0.042913403

sequential/dense/MatMul f4 [16, 256]
000000 e5 fc 0f 3d 0c eb ba bd 33 a0 12 be e0 5f 09 be
       0.03515329 -0.09126863 -0.14318924 -0.1341548
000010 04 1f bd 3d f2 19 10 3d fa f7 be 3c 6e ed 24 3e
       0.092344314 0.035180993 0.023311604 0.16106197
000020 76 82 da bc a1 fe 93 3c b2 9e 58 3d c6 2f 86 bd
       -0.026673537 0.018065752 0.05288572 -0.06552081
000030 a0 52 e1 3c 7a 56 ae 3d f2 38 b5 bd 11 8e 21 be
       0.027505219 0.08512588 -0.08848752 -0.1577685
000040 14 44 25 bd 76 ec ef bd eb fe 03 3e 5a 98 0a be
       -0.040348127 -0.11715023 0.12890212 -0.1353468
000050 56 80 44 bd 14 f7 e6 3c 7d a1 24 3e 41 c2 bc 3d
       -0.047973953 0.028193988 0.16077228 0.092167385
000060 b7 b3 0e bc 44 df 2c 3d 79 28 24 bc 4b 95 43 3e
       -0.00870984 0.04220511 -0.010019415 0.1909992
000070 4b 74 6b 3c af c1 2a bd 31 75 8c bc 57 ee 76 bd
       0.014370988 -0.041688617 -0.017145725 -0.060285892
000080 8d 93 0e 3e f9 fb aa bd 6f 9b 19 bd b4 b9 67 3d
       0.13923474 -0.08348841 -0.03750175 0.056573585
000090 16 49 b7 3d 4d 33 44 bd 9a 29 cc bd 05 65 eb 3d
       0.08949487 -0.047900487 -0.09968872 0.11493877
0000a0 0a 72 8b 3d ce 12 0b be f5 35 60 3c b7 4c b7 3d
       0.068088606 -0.13581392 0.013684739 0.08950179
0000b0 59 25 0e 3e 0b b0 21 bd 94 eb 45 3d 88 c4 91 3d
       0.13881435 -0.03947453 0.048320368 0.071175635
0000c0 77 1a 08 be d1 23 a0 3d 5e 5c 28 3d f1 9c 29 3c
       -0.13291346 0.078193314 0.041103713 0.010352359
0000d0 57 ce 1e 3e a4 58 ff bd 6e eb 7b 3d 3b ad 4e 3e
       0.155084 -0.12468079 0.06150382 0.2018327
0000e0 8c ed 45 bd 27 24 85 3d f5 57 a0 bd f2 07 1e 3e
       -0.048322245 0.06501036 -0.078292765 0.15432718
0000f0 d9 72 e4 3d 4d f3 f1 3d 1a 21 a0 bd 6f c7 c2 3d
       0.11154718 0.11813984 -0.078188136 0.09510695
000100 1d 39 fa 3c 99 a0 bf 3c ba 55 8a bd 6a 46 23 be
       0.030544812 0.023392009 -0.06754632 -0.1594483
000110 ab 91 07 3e c1 d3 1e 3d b3 18 c5 bc 7f db cb bd
       0.13239162 0.038776163 -0.024059629 -0.09953975
000120 63 52 a2 bd 41 9a 7d 3d f9 49 85 bd 74 d7 0f be
       -0.0792587 0.061914686 -0.0650825 -0.14047033
000130 ab d9 9a 3d f8 4d c6 bd e0 85 69 bd 7b 59 05 3e
       0.07561048 -0.0968284 -0.05701244 0.13022415
000140 94 c7 b2 3d 3e 45 e8 3d ed e1 a9 3d 66 e3 82 bc
       0.08729473 0.11341332 0.08295045 -0.015977573
000150 59 ed 28 3d e6 28 4d 3d a6 31 06 bc 02 24 a4 bd
       0.041241977 0.050087832 -0.008190548 -0.080146804
000160 e4 be 04 be e6 70 02 be 7f 19 4d bd cd c9 0c 3e
       -0.12963444 -0.1273838 -0.050073143 0.13748856
000170 59 94 b9 bc e5 6f b7 3c 3a 82 ff bd 05 2e b9 bd
       -0.022653745 0.022392223 -0.124760106 -0.09041981
000180 a6 d4 d3 bc 88 ba 03 be 97 12 5f bc 22 8b a1 bd
       -0.025858235 -0.12864125 -0.013615272 -0.078878656
000190 3a dd 9a 3d ff 73 d1 3c 79 ff 69 bd 67 ca ed 3d
       0.07561727 0.025568007 -0.057128403 0.11610871
0001a0 9c 4a 6d bd 0d a5 99 3d 76 96 5b bd b4 3d 2b 3e
       -0.05793248 0.07502184 -0.053610288 0.16722757
0001b0 b3 85 23 bd 70 55 4f bd 8c 7c 17 3e 4b 4b f3 bd
       -0.039922427 -0.05061859 0.14793605 -0.11879595
0001c0 23 91 ba 3d 0e e6 1c 3e 1a 81 0e bd b5 9f c3 3d
       0.09109714 0.15322134 -0.03479109 0.09551946
0001d0 10 85 1a 3e ba 2b 3f 3d 8f 75 3a 3e dc 3a b5 3d
       0.15089822 0.04667256 0.18208908 0.08849117
0001e0 1a a3 89 3d 8c 34 08 3d f9 b5 54 bd 75 e5 1e bc
       0.06720562 0.033253238 -0.051931355 -0.0096982615
0001f0 2a aa 8c 3d ac 53 b1 3d da 16 00 be 24 00 25 3e
       0.06868394 0.08658537 -0.12508717 0.16113335
000200 50 89 5b 3d 30 31 eb bc 0d 7b ab 3d 1a a8 0b be
       0.05359775 -0.028709978 0.083730794 -0.13638344
000210 3b aa 83 3d 09 e7 cf 3d 56 ca 35 3e 4f 29 7d bd
       0.06428953 0.10151488 0.17752966 -0.061806973
000220 f1 13 40 ba 0a 3d 78 bd b5 0d b0 bd 27 17 59 bd
       -0.000732719 -0.060605086 -0.085963644 -0.053000595
000230 b8 61 3b 3e f8 01 ff 3c 3b 9a 95 3d b3 ba 36 3d
       0.18298995 0.031128868 0.07304808 0.044611644
000240 92 69 11 be 95 7e 86 3d 64 04 0e be 18 69 29 bd
       -0.14200428 0.06567112 -0.13868862 -0.04135999
000250 e6 cf 89 3c 91 e9 c1 bd 33 e2 fc 3c 3c ff b9 bd
       0.016822767 -0.094683774 0.030869579 -0.09081885
000260 32 2b 91 3c 6e ee d3 bd 1f 54 fe 3d 87 3e ea 3d
       0.017720792 -0.10348211 0.124183886 0.114377074
000270 32 78 38 3b 1a 68 4e 3d f2 3c cf 3d 50 98 e1 bd
       0.0028147814 0.050392248 0.10119046 -0.110153794
000280 c7 72 06 bd 4a 83 33 3d 17 5f 11 be 23 32 14 be
       -0.032824304 0.04382638 -0.1419643 -0.1447225
000290 a4 5f 67 bd 35 b0 5b bd 1a 71 58 3d 53 f4 5e bd
       -0.056487694 -0.05363484 0.052842237 -0.054432224
0002a0 45 1a 3a 3c b7 5d d7 bd ed 61 10 bd 8a e0 ac 3c
       0.011358802 -0.105159216 -0.03524964 0.021103162
0002b0 96 6b 2a 3e 0a 36 8f bd 13 9e 77 bc f3 46 00 3e
       0.16642603 -0.06992729 -0.015113371 0.12527065
0002c0 0f 44 05 be 8e 6f 6f bd f0 b7 a5 bd fd 60 0a be
       -0.13014244 -0.058455996 -0.08091724 -0.1351356
0002d0 8d 9a 97 3d d0 9f 14 3e 21 80 dc 3d aa 1b b7 3d
       0.07402525 0.14514089 0.10766626 0.089408234
0002e0 53 cd 16 be c3 5d b2 bd 43 1a 47 bd 0e 77 c7 3b
       -0.14726762 -0.0870929 -0.04860903 0.0060871905
0002f0 3b 12 3a 3e 20 c9 7a 3b 71 3b 05 be 38 a1 bb 3d
       0.18171017 0.0038266852 -0.13010956 0.091616094
000300 0d 70 4f bd 39 ab de 3b 36 36 ab bd 09 5f 31 be
       -0.05064397 0.0067953137 -0.08359949 -0.1732141
000310 d6 3c 40 bd cc 09 1d bd 5a 6e b6 bd 4e 11 4b 3e
       -0.046933018 -0.03833942 -0.08907767 0.1983082
000320 49 26 7b bd e6 29 3a bd 22 77 85 bd be 75 e1 3d
       -0.06131581 -0.045450114 -0.065168634 0.11008786
000330 82 22 cc 3c d2 1f f6 3c d8 1e 55 3d 56 aa 78 3d
       0.024918798 0.03004447 0.052031368 0.06070932
000340 14 ca 95 3c b9 11 65 3c 98 21 c1 bd 74 b3 26 be
       0.018284835 0.013981276 -0.094302356 -0.16279393
000350 b5 8f 0a 3d 55 b5 cf 3b 38 52 3e 3d bc 2e 27 3c
       0.033828456 0.006338755 0.04646513 0.010204013
000360 6e 1d 94 3d 8d f8 85 bc f2 07 1f 3d be 33 cd 3d
       0.07232176 -0.01635387 0.038825937 0.10019635
000370 82 69 c1 3d 41 53 2a 3e 9d 3c ef bd 9a f9 24 3d
       0.09443952 0.16633321 -0.11681483 0.0402771
000380 be cd 14 bd 19 c2 0d be 8d d0 6b bd 55 d1 ff 3c
       -0.036329024 -0.13843574 -0.057571936 0.031227747
000390 08 7c 5a bd 36 f8 d8 bd 94 a9 cb 3c 15 f2 0a bd
       -0.05334094 -0.105942175 0.024861135 -0.033922274
0003a0 d5 ed 0f be 57 85 00 3e 7d 1a f3 3d b6 84 bd 3d
       -0.1405557 0.12550865 0.118702866 0.09253828
0003b0 fe a3 0b 3e 73 a1 d4 3d 6e 18 16 3e d6 f4 c5 3d
       0.13636777 0.103823565 0.14657757 0.096658394
0003c0 24 e5 db bd 9c 26 45 bd b8 b6 f7 bd e2 03 5a 3d
       -0.107370645 -0.048132524 -0.12095398 0.05322636
0003d0 51 05 3f 3e a5 d4 b8 bd 96 d6 28 bd a6 04 a4 3d
       0.18654372 -0.09024934 -0.04122027 0.08008699
0003e0 70 c5 ec 3b 9b 2e f8 bd 0e ba e7 3d 80 0b 1b 3e
       0.007225685 -0.12118264 0.11314784 0.15141106
0003f0 3c e6 78 bd b0 31 b2 3c e1 15 08 3e c4 a4 b8 b8
       -0.060766444 0.021752208 0.13289596 -8.804494e-05

sequential/dense_1/MatMul f4 [7, 16]
000000 61 6b 0f bf 3a 8e f6 3d d7 72 ae be 97 02 f8 bb
       -0.5602322 0.12038846 -0.3407199 -0.007568668
000010 7c cb 1c 3e 81 c8 3e 3e 67 4c ec 3e aa b5 00 3f
       0.15311998 0.18631174 0.4615204 0.502772
000020 f1 8a 9f 3e b9 61 23 be bd f3 12 3f e3 c1 07 3f
       0.3116069 -0.15955247 0.57403165 0.5303022
000030 f2 46 06 bf d0 cf 2d bf ff e0 80 3d ed 07 b9 be
       -0.52452004 -0.6789522 0.062929146 -0.3613886
000040 a2 c7 26 be cc 91 77 bd 99 78 9e be 78 ad f6 3d
       -0.16287091 -0.060441777 -0.30951384 0.12044805
000050 61 7d 66 3e f7 43 f8 3d ed 05 84 3d ec de 32 3d
       0.22508766 0.12122338 0.06446443 0.043669626
000060 a2 32 28 3f 2a 54 73 3d f4 d7 10 bf b9 43 c3 3e
       0.6570226 0.059406437 -0.5657952 0.38137606
000070 2d d0 03 bf 55 e9 98 3c b2 3f 24 3f 1e ff da 3d
       -0.51489526 0.018665949 0.6415969 0.10693191
000080 1b 8e c2 bd 31 8f 79 bc f7 ff f0 be fe 1d 72 be
       -0.09499761 -0.015231893 -0.47070286 -0.23644254
000090 14 c1 c4 be cf 2f 15 3f 28 9b cf 3c 81 8b 17 bf
       -0.38428557 0.58276075 0.025342539 -0.5919724
0000a0 1e 25 c1 3c c7 06 4a be ce 81 a4 3d a7 f8 14 3f
       0.02357727 -0.19729148 0.08032571 0.58191913
0000b0 f6 90 e5 be 5c 1e e7 be 8d 7f 8d 3e 2e 8b b3 3e
       -0.4483716 -0.4514035 0.27636376 0.35067123
0000c0 4d f8 c5 3d ef 42 1c be f1 5d 43 3d 36 ca ca 3e
       0.096665 -0.15259908 0.04769701 0.396074
0000d0 cc 77 77 3e 12 49 aa bd 13 50 d3 3d 23 d9 b1 be
       0.24166793 -0.08314718 0.10318007 -0.34735975
0000e0 fc a5 02 bf 89 8e 7a 3e f7 a0 ad be 05 da aa be
       -0.5103452 0.24468435 -0.3391187 -0.3336946
0000f0 2d 5b 4e 3e ae 0a 4b bc 51 b9 cc be e0 e8 90 3e
       0.20151968 -0.012392683 -0.39985135 0.2830267
000100 db 7a a0 be 61 68 0a 3e fc c6 93 be c5 82 10 3f
       -0.3134373 0.1351638 -0.2886275 0.5644954
000110 23 c7 fd be bd 88 c8 be 62 67 88 3e 4b c9 59 be
       -0.49565992 -0.39166823 0.26641375 -0.21268193
000120 6a 97 02 be 02 c0 11 bf 1a ee 12 3f 0d 63 81 be
       -0.12753072 -0.56933606 0.57394564 -0.25270882
000130 21 eb f3 be 40 e8 e4 3d 81 b4 ff be 22 40 c7 3e
       -0.47640327 0.11177111 -0.499424 0.38916117
000140 cb cf 1d bf 89 1d 84 3e ec 20 69 3e 7d 93 f2 3d
       -0.6164519 0.25803784 0.22766465 0.118445374
000150 a0 f4 ab bd 96 ec 8b 3e 9b 55 ed 3e b1 9c 86 3e
       -0.08396268 0.27328938 0.46354374 0.2629142
000160 8e 2c 0d 3e 6b a2 24 bf 36 c0 9e bb 91 b7 6b 3e
       0.13786528 -0.6431033 -0.0048446907 0.23019244
000170 0f 13 b9 3c 78 5b f7 3e 11 fa af 3e 7d e1 43 bd
       0.022592096 0.48311973 0.34370473 -0.047822464
000180 8a da d9 bd 68 18 1c 3f 95 ce d8 be a8 0f c4 be
       -0.10637386 0.6097474 -0.4234511 -0.38293195
000190 30 2b e4 be 66 09 49 be a3 4d 86 be 3c e1 47 3e
       -0.445642 -0.19632491 -0.26231107 0.19519514
0001a0 ec c3 ff 3d 33 d6 b2 3e a3 71 ff bd 1e 80 d7 3d
       0.12488541 0.34929046 -0.12472846 0.10522483
0001b0 ac a9 95 3d 46 46 a0 3e 3f db dc bd cd fc d5 be
       0.07307753 0.31303614 -0.107840054 -0.41794434

sequential/conv2d/Conv2D f4 [8, 3, 3, 1]
000000 52 e2 66 be 42 da 46 3f e9 0f 49 bf 92 ae 0c be
       -0.22547272 0.77676785 -0.785399 -0.13738468
000010 80 98 39 3f 06 37 d3 be bc 20 4e 3f 26 e5 7b 3e
       0.7249832 -0.41252917 0.805187 0.24599132
000020 cf 80 92 be 35 4a 1f bf ce aa 8e be 2e df 8d 3d
       -0.28613898 -0.62222606 -0.2786469 0.06927334
000030 f3 57 6d 3f 20 2c 0e 3f 64 b4 6e 3f 78 cd 34 bf
       0.92712325 0.5553608 0.93244004 -0.7062602
000040 e0 e6 2c 3f 19 3a b8 3e 60 c8 0e bf 28 00 23 3f
       0.6753979 0.35981825 -0.557745 0.63672113
000050 ce 53 40 3f 3d 5b 14 3f 56 f6 84 3e a6 6f 70 be
       0.75127876 0.5795172 0.2596919 -0.2348009
000060 44 ba 27 bf 3d 03 21 bf 05 59 22 be 88 92 c2 be
       -0.65518594 -0.62895566 -0.15854271 -0.3800242
000070 fe d5 34 bf 50 72 51 be cd f2 0b bf ac d4 43 3f
       -0.70639026 -0.20453763 -0.5466736 0.76496387
000080 7b e3 2a bf fe fd e6 be 95 5d 57 be 97 33 e1 be
       -0.6675336 -0.45115656 -0.21031792 -0.43984672
000090 64 16 10 be d1 21 4b 3f f8 fb 3e 3f f3 0a dd 3d
       -0.14071041 0.79348475 0.74603224 0.10793104
0000a0 2b 56 a5 be b1 ce a7 3e 56 fa 23 bf e4 70 11 bf
       -0.32292303 0.3277488 -0.6405386 -0.5681288
0000b0 b8 d9 12 bc 45 67 64 bd 3b 8c 25 be a2 4e 3c 3f
       -0.008963041 -0.055762548 -0.16166775 0.73557484
0000c0 2d ad 3d 3f 93 da 1c 3e 67 d2 80 be 26 10 64 3f
       0.7409237 0.15317754 -0.25160524 0.8908714
0000d0 0b ca 04 3f a4 16 1f bf 5e d9 d0 bb 71 87 a3 be
       0.51870793 -0.6214392 -0.0063735684 -0.3193927
0000e0 f3 d4 32 3f 4e c8 f0 bd 50 7e 44 bf cc f8 4c be
       0.69856185 -0.11756955 -0.7675524 -0.20016783
0000f0 02 d5 4a 3f 62 5a 29 bf 55 14 ac 3e ff dc 7b 3d
       0.79231274 -0.6615354 0.33609262 0.061490055
000100 43 24 78 3e 92 91 5f bd c8 b2 4d 3f c8 d8 a4 be
       0.24232583 -0.054582186 0.80350924 -0.3219664
000110 88 53 b2 be f8 9b 5a 3e 4a 89 30 3f a0 98 2c 3f
       -0.34829354 0.2134856 0.68959486 0.6742039

sequential/conv2d_1/Conv2D f4 [16, 3, 3, 8]
000000 e6 8f 19 bd 8c 9b 1c bd 73 65 6a be a1 f8 80 3d
       -0.037490748 -0.03823428 -0.22890262 0.06297422
000010 90 15 92 3e bb e6 c4 b9 d2 bf 92 3e b0 74 3f bd
       0.28532076 -0.0003755594 0.28661972 -0.04674214
000020 9b db b0 3d 35 37 02 3d a6 a1 01 3e 80 f2 91 3e
       0.086356364 0.03179093 0.1265932 0.28505325
000030 7a 7c 9e 3e 4c ee 8e 3c 41 80 75 be d9 c6 34 bc
       0.30954343 0.017447613 -0.23974706 -0.011033737
000040 13 99 9f ba c8 fd 3c be f3 eb 7e 3e cb 09 95 3e
       -0.0012176357 -0.18456185 0.24894695 0.29109034
000050 02 66 fc bd d1 d1 9f bd 85 5c 56 3e 3b b7 a2 be
       -0.12324144 -0.07803691 0.20933731 -0.3178042
000060 d5 23 d0 bd 45 83 9c 3d e4 ec 0d be 55 4b 85 be
       -0.101630844 0.07642225 -0.13859898 -0.26034036
000070 15 a3 51 be ab b4 aa 3d 8d 4c 6c be f3 02 87 be
       -0.20472367 0.08335241 -0.23076077 -0.26369438
000080 08 f0 f0 bc 81 e7 99 be 71 aa 7f 3e fa 31 68 be
       -0.02941133 -0.30059436 0.24967362 -0.22675315
000090 0b 58 87 3e c5 c9 84 bd 4e 2e c2 3d b8 85 45 be
       0.2643436 -0.06483797 0.09481488 -0.19289291
0000a0 73 fc 35 bd 2c 02 ed bd ea 55 40 be 8f 80 5b be
       -0.044430207 -0.1157268 -0.18782774 -0.2143576
0000b0 2d 36 4c 3e 56 ed 27 3e 05 55 47 3e da fc 91 be
       0.19942541 0.1639913 0.19466026 -0.28513223
0000c0 34 dd 1f 3d 7f 44 83 3e 85 24 de bd 6b 57 82 be
       0.039029315 0.25638196 -0.10846809 -0.2545732
0000d0 d1 0f ec bd 27 cb 87 3d 5f 94 62 be 38 69 b3 3d
       -0.11526454 0.06630545 -0.22126912 0.08760303
0000e0 f8 29 a8 3b 3c f5 76 3e ac 06 05 be a7 a2 97 3e
       0.005131956 0.24116987 -0.12990826 0.2961628
0000f0 c4 48 f1 bc 55 4f c0 3d fc e2 e8 bc a9 c3 1d 3e
       -0.029453643 0.093901314 -0.028428547 0.1540667
000100 78 bf 1e 3e c7 6f 69 3e a9 b3 1c be 66 b5 ed 3d
       0.15502727 0.22796546 -0.1530291 0.11606865
000110 f3 0e c7 bd b1 b9 5e 3c 66 0d 6c 3e 97 d6 45 3e
       -0.09719648 0.013594077 0.23051986 0.19320141
000120 d7 7a 2a 3e 4e 04 d1 3e 53 0f c2 3e a4 ae 27 3d
       0.16648422 0.40823597 0.37902316 0.040938035
000130 ef 93 20 3e 54 63 99 3e fc 4d 33 3e be 67 84 3e
       0.15681432 0.29958594 0.17510217 0.258604
000140 8e bf 7a bd b3 a5 81 3e 83 bd a3 3d f4 e5 2e 3e
       -0.061217837 0.2532173 0.07995131 0.17079908
000150 0d 55 1e be 46 be 05 3e 5d 0f 98 3e fb 27 83 3e
       -0.15462132 0.13060865 0.2969922 0.2561644
000160 27 0a df 3d c3 30 af 3e 10 14 13 3e 19 35 4c be
       0.10890608 0.3421689 0.14363122 -0.1994213
000170 b6 ff bc bd fe b2 97 3c da 8a 82 3e 03 93 1e bd
       -0.092284605 0.018517967 0.2549656 -0.03871442
000180 4a d5 76 bd df 08 85 be 8a fe 7d bd 65 4a ea 3d
       -0.060262002 -0.2598333 -0.062010325 0.11439971
000190 80 fa ad 3e 91 ad 2d be 9d 8f 2e 3e 43 8d 88 be
       0.3398018 -0.16960742 0.17046972 -0.26670274
0001a0 f9 77 4d be 43 e3 0a 3e 5d 77 e2 3d 8e 9a 87 be
       -0.20065297 0.13563256 0.11057923 -0.26485103
0001b0 2d 0c 61 3e 57 c1 76 3d 7f df 9a 3e b9 b0 17 be
       0.21977301 0.060242977 0.3024864 -0.14813508
0001c0 36 75 9f 3e 9b 1e 40 3e 52 b4 12 be 22 a5 95 3e
       0.31144112 0.18761675 -0.14326599 0.2922755
0001d0 16 da 3e bd a4 f2 9d 3e a3 97 b4 3e 6c 7a 99 3b
       -0.0465947 0.30849183 0.3527194 0.0046837833
0001e0 15 eb 46 be a3 d7 0d 3e 6a ab 50 be 08 4b 73 3e
       -0.19425614 0.1385179 -0.2037789 0.23759091
0001f0 d4 b5 92 be ab 85 8e be f7 81 ff 3d 22 ae 78 bd
       -0.2865435 -0.27836356 0.12475961 -0.06071294
000200 56 b5 2e be 55 ed ae 3c 3a 2d 90 3e ad 20 80 3e
       -0.17061362 0.021353403 0.28159505 0.2502493
000210 13 99 90 3e 86 a3 18 3e 3d 0b 29 3e c3 f6 f6 3d
       0.28241786 0.14906129 0.16508193 0.12058785
000220 37 78 a3 3d e5 b3 61 3e da e0 2e bd 12 48 24 be
       0.079819135 0.2204128 -0.042694904 -0.16043118
000230 e1 9d 0e 3e f5 ba 1d bd b9 21 4f be 48 b7 15 3e
       0.13927414 -0.038508374 -0.20227708 0.14620697
000240 19 98 84 3e 8c fb 10 be 72 3b 13 3e 26 5d b9 bd
       0.2589729 -0.14158458 0.14378145 -0.0905097
000250 4e d4 7d 3e d5 65 43 bd c7 48 2b bd 0d 86 2b be
       0.24788019 -0.047704536 -0.041817453 -0.16750355
000260 0e 53 a4 3d 0b bb b7 bd ab 4b 8e bd f6 d1 1d be
       0.08023654 -0.089712225 -0.06948026 -0.15412125
000270 73 52 2f 3e 69 b4 e9 bd 02 73 90 3e 87 d1 8e be
       0.17121296 -0.11411364 0.28212744 -0.27894232
000280 d4 6b 59 be 13 d6 80 3e 8a 09 5d bd e1 c6 82 be
       -0.2123254 0.25163326 -0.053964175 -0.25542358
000290 d3 4a 07 3e e6 3e 4c 3d ed e6 b1 3e ec 61 9a 3e
       0.13212137 0.049864672 0.34746495 0.30152833
0002a0 d2 cf 81 be c6 23 f3 bc 9a 88 99 3e 92 35 cd 3c
       -0.25353867 -0.029680144 0.2998703 0.025049958
0002b0 4b 90 c0 3d a5 dd 90 bd 34 77 97 bd 87 56 13 bd
       0.09402522 -0.07073525 -0.07395783 -0.03597119
0002c0 db 29 6e 3e d8 f0 b1 bd 4c f6 80 be 00 df 87 3c
       0.23258154 -0.086885154 -0.2518791 0.016585827
0002d0 7c 92 7d 3e bd 9b 39 3e 43 df 72 3d 33 4b 6b bd
       0.2476291 0.18125816 0.05929495 -0.057444762
0002e0 a9 a0 15 be 7e 29 b5 3d e3 8a 8c 3d d1 3c 7a 3a
       -0.14612068 0.08845805 0.06862428 0.00095458055
0002f0 f5 bc 64 3e d9 90 35 be 33 fb 37 3e 68 d9 98 be
       0.22337706 -0.17731036 0.17966919 -0.29853368
000300 21 04 42 3c 56 11 0f 3e 76 88 7d 3e 34 9b 76 3e
       0.011841805 0.13971457 0.24759087 0.24082643
000310 5d b2 89 3d cb 4e 74 3e 56 af 28 3b d8 2e 22 3e
       0.06723473 0.23858182 0.0025739274 0.15838182
000320 1b fa 5b 3e 4e 90 a5 3d 08 f3 27 3e c2 6b f5 3d
       0.21482126 0.080841646 0.16401303 0.11983444
000330 21 37 1c be 67 73 84 3d e3 39 83 be c8 92 86 be
       -0.15255405 0.06467324 -0.25630102 -0.2628386
000340 a5 65 a4 bc 8d 13 7a bd 65 a9 a5 3d 98 bb 85 bd
       -0.020068 -0.0610538 0.0808895 -0.06529921
000350 ea bb 6b 3e 7b 93 8e 3d 3a 97 60 3e 95 f4 de bd
       0.23020902 0.069617234 0.21932688 -0.10886494
000360 52 ce 6d 3e 2b fb 4e 3e c4 fa 10 bc 35 d1 03 bd
       0.23223236 0.20213 -0.00884885 -0.032181937
000370 16 44 e0 3d 0a 50 b5 bd ea e6 8b 3e 4f ce 94 bc
       0.10950486 -0.08853157 0.2732461 -0.018164782
000380 96 77 ca 3d 02 68 9f 3e 89 2a 0d be e5 8b ee bd
       0.098860905 0.3113404 -0.13785757 -0.116477765
000390 cf 68 a1 3e 49 29 a5 3e 59 37 d2 bd 1a fb 4e be
       0.31525275 0.3225806 -0.10264463 -0.20212975
0003a0 9a 3e d7 3c 28 f4 00 3e fa d1 ad 3d c2 99 27 bd
       0.026274968 0.12593138 0.084873155 -0.04091812
0003b0 12 0a a6 3d a3 56 85 be c6 cd 81 3e cf eb 48 3e
       0.081073895 -0.2604266 0.25352305 0.19621204
0003c0 b0 e0 ef 3d 04 6a e3 bd 85 3f 97 3e 8d b5 3c 3e
       0.117127776 -0.11104205 0.2954065 0.18428631
0003d0 05 4d 80 3e 39 1a 8d 3e 16 c0 1c be ae 8d 13 be
       0.2505876 0.2755907 -0.1530765 -0.14409515
0003e0 c1 d1 ce bc b9 e5 7b 3d ee 72 a1 3e 8a 58 d2 bd
       -0.025246503 0.061498377 0.31532997 -0.10270794
0003f0 b5 6c 38 bd 9d f9 38 be 06 ec 8d bc 7c 79 67 bd
       -0.045025546 -0.1806397 -0.017324459 -0.05651234

sequential/conv2d_2/Conv2D f4 [16, 3, 3, 16]
000000 ca 96 b5 bd 49 04 50 3e 2f fc c8 3d 28 94 4e bd
       -0.08866651 0.20314135 0.09813725 -0.05043426
000010 9f 60 a1 3d 9b 27 cb bc 09 e3 f1 bc be 43 ae bc
       0.07879757 -0.024799159 -0.029527204 -0.021272536
000020 09 2f 15 be d5 7a 86 3d 90 b0 3b be 26 1c 7f bc
       -0.14568724 0.06566397 -0.18329072 -0.015570676
000030 b3 1a f0 3b 5d 1d 03 be bb 41 1f be 31 0c 21 3d
       0.0073274015 -0.1280417 -0.15552418 0.039318267
000040 f1 bf 0e 3d d9 db 68 3e a3 c2 03 3c db a3 bf bd
       0.03485102 0.22740115 0.0080420105 -0.09357425
000050 f8 4d 2b be b8 bb 9e 3d 45 9c 0d bd ce 69 db bd
       -0.16728961 0.07750648 -0.03457286 -0.1071354
000060 22 6f 7b 3d de 68 22 be 35 93 21 3e f3 29 ae bc
       0.06138528 -0.15860316 0.15778811 -0.021260237
000070 92 bf 03 3d 07 1f 30 3e 74 32 6d bd df c2 46 3e
       0.032165118 0.17199336 -0.057909444 0.19410275
000080 3a 18 44 be 0f f7 92 bd 5d 8f 1d 3d 70 51 70 bd
       -0.19149867 -0.07176029 0.0384668 -0.058671415
000090 52 40 1d be c0 23 7c 3e 15 a0 47 be fa d9 1b 3e
       -0.15356568 0.24623013 -0.1949466 0.1521987
0000a0 69 13 e4 bd ee 71 02 3e 49 f0 36 be 05 70 7c 3c
       -0.11136515 0.12738773 -0.17865099 0.015407567
0000b0 77 69 55 3d 20 6f 29 be 52 49 21 3e 2b 3e 3e 3e
       0.052102532 -0.16546297 0.15750626 0.18578403
0000c0 d9 6e 02 3d 34 d5 82 3e cb 9c d5 bd 2c 97 88 3c
       0.031843994 0.25553286 -0.104302965 0.016673647
0000d0 b4 1a 52 bd 05 cb 02 be b5 ee 49 be f2 8d 25 be
       -0.051294997 -0.12772758 -0.19719966 -0.16167429
0000e0 a6 06 0c be dd 8d 72 3d 12 70 fd bd a4 3d 42 3e
       -0.13674411 0.059217323 -0.12374891 0.18968827
0000f0 c1 65 2a 3e 84 d2 1d be 99 dc 31 3e 6b 07 1d be
       0.16640379 -0.15412337 0.17369308 -0.15334861
000100 87 0e 2e 3e af 49 18 3e 5e 3e 48 bd 6c 2d d3 bd
       0.16997729 0.14871858 -0.048887603 -0.10311398
000110 7e 02 63 bd 01 0e 50 3e 3b b4 16 3e 89 f9 27 bb
       -0.0554223 0.20317842 0.1471719 -0.0025630912
000120 b9 84 50 3e 67 4c 88 bd a3 fd 0c be a6 51 0c 3e
       0.2036313 -0.066551976 -0.1376863 0.13703021
000130 d3 54 e0 bd eb f3 a4 bd 38 a5 4e be da 28 d4 bd
       -0.10953679 -0.08054336 -0.20180213 -0.10359354
000140 28 50 36 3c e1 00 df 3c 12 c2 2d bc 02 72 63 bb
       0.011127509 0.027222099 -0.010605352 -0.0034705405
000150 10 38 74 3d b5 3b 8b bb be c0 25 3e 22 e3 64 3c
       0.059623778 -0.004249061 0.16186807 0.013970168
000160 ca 6b ea 3d 2e da 84 bd bd bc 44 be a4 dc f0 bc
       0.114463404 -0.06486927 -0.19212623 -0.029402085
000170 7b 76 3a be af 78 4d be 51 1a 6f 3d 56 67 b6 3d
       -0.18209259 -0.20065568 0.058374707 0.089064285
000180 3c 27 18 3d eb 8b a2 3d d5 95 3c 3e 6a 6e 9d 3d
       0.03714679 0.079368435 0.18416531 0.076870754
000190 ab 38 fe bd 10 ed ff bb b3 c0 06 be 91 ca 03 3e
       -0.12413152 -0.0078102425 -0.13159446 0.12870242
0001a0 a7 28 0f 3e 0b 4a 71 bc 96 f8 ef 3d f4 be 38 3e
       0.13980351 -0.014727126 0.11717336 0.18041593
0001b0 db 7b 39 be 11 8f 20 be 53 a3 20 be be 45 c2 3c
       -0.18113653 -0.15679576 -0.15687303 0.023714896
0001c0 f1 8e 84 bd 03 63 4b bd c8 3f 02 be 21 65 f8 bc
       -0.064725764 -0.04965497 -0.12719643 -0.03032166
0001d0 0c ef 3e bd 7c 8e 22 bd 02 02 f7 3b e4 6a 14 be
       -0.04661469 -0.039686665 0.007538081 -0.144939
0001e0 28 de 73 3d bb cd 00 3c 66 6e ff bd 79 e7 3e bd
       0.059538037 0.00786155 -0.12472229 -0.04660747
0001f0 db 8a 24 be 37 e4 2f be 51 8d 48 3e 38 b0 c8 3c
       -0.16068594 -0.17176901 0.19585158 0.02449809
000200 ae c6 22 3d 89 80 48 3e 82 40 26 be 8a ac 59 b9
       0.039740257 0.19580282 -0.16235545 -0.00020759008
000210 9e ee 22 bc 21 f2 cd 3c 74 0f 07 be d3 00 fb bd
       -0.009944586 0.02513987 -0.13189489 -0.122560166
000220 80 25 b0 3d be 16 c3 bd 9d e1 26 be f3 a1 1d 3e
       0.086009026 -0.09525822 -0.16297002 0.1539381
000230 ec e5 18 bc a8 5b 59 ba 59 10 8a 3c 72 61 9f 3d
       -0.009332161 -0.0008291551 0.016853498 0.07782258
000240 b0 4e 07 3e 43 a3 1a 3e 37 54 bc bd 66 86 2f be
       0.1321361 0.15101342 -0.0919575 -0.17141113
000250 a3 47 1a 3e 3d d1 05 3e 73 34 03 3e d2 b7 33 be
       0.1506639 0.130681 0.12812977 -0.1755059
000260 59 00 ea 3d 0a 2e 4e 3e 27 4e df bd c2 5d 6f 3d
       0.114258476 0.2013475 -0.10903578 0.058439024
000270 ce c0 0c 3d b7 d3 a6 3d 92 e3 a9 bd 0d 2c 94 bd
       0.03436356 0.0814585 -0.08295359 -0.072349645
000280 74 2e e2 3d 8d c1 d8 3d d4 65 52 3d d3 6a aa 3d
       0.110440165 0.10583792 0.051366642 0.08321156
000290 96 dc 2d bd ee 7b 9b bd 47 aa 7f 3d de 43 a2 bd
       -0.042446695 -0.07591997 0.06241825 -0.07923101
0002a0 e9 24 d9 bc 9c 58 4e be 6e 82 16 bc 4b ee 6a 3e
       -0.026506858 -0.2015099 -0.00918637 0.22942464
0002b0 64 11 d9 3a 58 86 41 be 7c 20 18 3d 31 a1 41 be
       0.0016560969 -0.18898904 0.037140355 -0.18909146
0002c0 a3 3e 1a 3d 5c f7 e1 3d b4 cd 5c 3d 0e 44 27 be
       0.03765739 0.11033508 0.05390711 -0.16334555
0002d0 de 1f 9e 3d 65 6b 71 3e 84 3a 08 be 11 58 10 3e
       0.07720922 0.23576124 -0.13303572 0.14096095
0002e0 cf 60 04 bd 4a 0e 15 3e 07 42 78 3e a2 30 7a 3d
       -0.032318886 0.14556232 0.24243937 0.061081536
0002f0 6b 97 6d 3d 32 76 0e 3d 71 38 dc 3c 0a 9e 30 be
       0.05800573 0.03478069 0.026882382 -0.17247787
000300 b0 5e aa 3d d3 a2 ef bd 61 e4 5a 3b 49 92 5c 3e
       0.083188415 -0.11700978 0.0033400285 0.21540178
000310 61 1a c2 bd e0 7d d6 3c af b4 2f be 06 d6 82 3d
       -0.094776876 0.026183069 -0.17158769 0.06388478
000320 25 e2 f8 bd 05 1b 05 3e 40 ee 36 be b0 0a d9 3d
       -0.12152509 0.12998588 -0.17864323 0.105977416
000330 b8 ae 4d be 40 f5 2b bc cf 51 5d 3b 47 b1 2f be
       -0.20086181 -0.010495484 0.0033770686 -0.1715747
000340 7b b7 07 be 8d 59 67 3e 9e 73 28 3e bd df 24 3e
       -0.13253586 0.22592755 0.16450354 0.16100974
000350 6c 83 51 3e 64 73 2f bd d4 00 f2 3a 5e 7b 9c bd
       0.2046029 -0.042834654 0.0018463382 -0.07640718
000360 f1 24 a2 3d a1 2b 1c 3e 6b ea 97 3d dc 75 3f bd
       0.07917202 0.15251018 0.074177586 -0.04674326
000370 d2 db 29 3d 99 ac 35 3d 65 a9 2e 3e 86 17 23 bd
       0.041469403 0.044354055 0.17056806 -0.039817356
000380 fb 27 66 3d db d9 78 3e 43 49 35 3e 52 7d 87 bd
       0.056190472 0.24301855 0.17703728 -0.066157
000390 9d 41 98 bd d2 11 f2 bb 7f 8f c2 bd 28 ac 2f 3e
       -0.0743439 -0.0073873783 -0.09500026 0.17155516
0003a0 6b de 9b bd 61 2b e7 bc d7 75 30 be fc db 29 be
       -0.07610782 -0.028218927 -0.17232452 -0.16587824
0003b0 8e a7 11 3d 7d 4d 3f be a3 03 cd ba ea 23 9b 3d
       0.035560183 -0.18681903 -0.0015641343 0.075752094
0003c0 02 81 d2 bc 65 f3 12 3d 55 8d 00 3e 78 c2 18 be
       -0.025696281 0.03587665 0.12553914 -0.14917934
0003d0 90 5a 3e 3e 26 7f 03 3e 76 46 17 be d1 f3 ad bd
       0.18589234 0.12841472 -0.14772972 -0.0849377
0003e0 ec 44 aa 3c d0 c8 8f bd 6c 54 9c 3d 2b a5 33 3e
       0.020784818 -0.07020724 0.0763329 0.17543475
0003f0 c0 bc 3e be a0 6f 18 bd 56 31 ed bd 85 38 be bd
       -0.1862669 -0.03721583 -0.11581676 -0.09288124
