training/output/gesture_model.tflite (tflite, 34772 bytes, 10 tensors)

sequential/conv2d/BiasAdd/ReadVariableOp/resource f4 [8]
00000000: 19bd 493d 07b3 a63c 9940 843d 9ddc 053c
00000010: 0a8e 0f3d 56c5 453d 4a60 c73c 1eb4 f1b4
0.049252603 0.020349039 0.064576335 0.008170274 0.03504757 0.048283897 0.024337906 -4.50208e-07

sequential/conv2d_1/BiasAdd/ReadVariableOp/resource f4 [16]
00000000: 42e8 433d f319 cb3b 01d8 553d ca6d c23c
00000010: 567f f2bc 021d 303d 5e83 49bc e912 233d
00000020: 1edc 093d 7ff4 623c f8c4 20bb acfc 36bc
00000030: 10c0 823b d6f4 803c e38f f23c 17f5 57bc
0.04782892 0.0061981617 0.05220795 0.023733992 -0.029601734 0.042996414 -0.012299387 0.039812956
0.033657186 0.013852238 -0.0024531465 -0.01116864 0.003990181 0.015741747 0.029609626 -0.013180993

sequential/conv2d_2/BiasAdd/ReadVariableOp/resource f4 [16]
00000000: 97e2 1e3d 1dba 043b e772 b1ba e0f5 713c
00000010: 60c8 09bd 22cf 143d 636b f73b c05c 763c
00000020: de5a 0c3c e04a 453c ebbe 843c d835 273d
00000030: 5eea d83b 4ed2 073d 8b89 993b 4849 593c
0.03879031 0.0020252534 -0.0013538272 0.014768094 -0.033638358 0.03633035 0.0075506433 0.015036762
0.008566586 0.012041777 0.016204318 0.040822834 0.0066197356 0.033159547 0.004685586 0.0132621005

sequential/dense/BiasAdd/ReadVariableOp/resource f4 [16]
00000000: 75b6 41bb cd69 af3c 5c21 343b a322 47bc
00000010: d8cc 7fbc 84e2 3ebc 6736 99bc 8c20 ce3c
00000020: ce10 0a3c e26a 113b 8a02 b03b 1fdb 1dba
00000030: 2528 353c ab26 a5bb 4cdc 20bb ab88 d33c
-0.0029558216 0.021412754 0.0027485704 -0.012154254 -0.015612803 -0.011650685 -0.018702699 0.025162004
0.008426858 0.0022188951 0.0053713964 -0.00060217263 0.0110569345 -0.00504001 -0.002454537 0.025822004

sequential/dense_1/BiasAdd/ReadVariableOp/resource f4 [7]
00000000: 9ff8 103b f68b 1cbc 0b47 60bc baf8 bd3c
00000010: 07b3 523d cb65 9cbd 1c82 ba3c
0.0022120846 -0.009554854 -0.013688813 0.023189891 0.051440265 -0.07636603 0.02276712

sequential/dense/MatMul f4 [16, 256]
00000000: 0afb 3cbc 05ee 923d b43e d8bc 079b fc3d
00000010: 4ffe 3e3d 230e 033e 442b 973d 4b3b f4bc
00000020: 8c8f 843d d528 15be 517f adbc 4e07 c1bd
00000030: 5515 013e 2d99 5cbd d544 863d bf60 11be
00000040: fe9b d6bd cb80 433d c291 0fbe 3402 353d
00000050: c8c1 19be 5732 1abe 8872 4b3d 1ac7 56bd
00000060: 5543 84bd f63e 933d 889f 613d b7f9 a5bd
00000070: be45 833d a9fa 16bd 536d d5bd 8249 b53d
00000080: 2b0d ac3d 8d84 033d fa57 a0bc 9e38 073c
00000090: ad43 06be 8b25 0fbe 6ba2 983d 9fa9 6d3c
000000a0: 8746 b0bc 8a68 22bd 1325 38bd 9775 1e3d
000000b0: 5e86 b13a 99cf 2fbd 0960 023e dba2 ed3d
000000c0: d66f 013e 8451 18be adeb 14be b516 ddbd
000000d0: 7d32 29bd bbb7 bfbd 1c33 0cbe 4dca b33d
000000e0: 28a4 8d3d 7a55 06bd e93a d43d 1841 d93c
000000f0: af7d dc3d e8dd b73d 083b 0a3d 9691 16be
00000100: 3d28 4cbd fad7 46bd 882f 60bc c586 c53d
00000110: 71d7 85bd cf14 81bc 9e84 ab3d dd0c e33d
00000120: b488 b0bd 5b26 193e 9453 b2bd f741 9cbd
00000130: bb1f 6ebd 93a4 233d 7ce1 843d 06d7 abbd
00000140: 398e 553d 911d 6fbd fd55 86bc fc61 f7bd
00000150: 4cf7 b23d 3439 5b3c f762 ea3d 94b8 10be
00000160: 743e d3bd 0e07 74bd 9c89 c33d 092d d83d
00000170: f640 ca3d 6842 cf3d 9812 b1bd 0758 9cbd
00000180: bf39 993c 8a50 f93a 0729 a43d b4ff b83d
00000190: 9d6a d3bd 6292 cbbd 12d1 903b 5f29 193d
000001a0: 7e16 ed3d 1a22 22bd 9636 e33d 4124 3ebc
000001b0: 7963 893d a2b4 c73d 991a 17bd 2aed 00be
000001c0: 0c1e 0cbe 79cb 2abd 1a20 9e3c 5f9c b73c
000001d0: d86c 6f3d 8a23 083e 0050 c7bd c22d 08bc
000001e0: f23d bf3d 7086 debd 50d9 a23d 69b2 14be
000001f0: d562 073e 62ec 90bd bb75 a1bd 321b b8bd
00000200: 94f7 5ebd f03b d1bd 94d1 b93d 9fb0 7c3c
00000210: 6c0b 29bc 120c e7bd 175a 093d 01a2 ddbd
00000220: 0659 28bc 3d5b d83d 044e 763d c560 69bd
00000230: eb51 5d3d 26cd 153e 34c1 d33d 66e8 be3d
00000240: b124 793c 574a e53d 704b 4c3d 9dfe e83d
00000250: 282e 1cbe a877 14be d96e 89bd a72a 603c
00000260: 3d7a 133d b4b6 493d 6f38 d6bd 2389 6d3d
00000270: 102e 853c 14fa 9fbc 712e 473d 6280 4ebd
00000280: cb50 e7bd 6ff8 a1bc 8225 06be 97af 20bd
00000290: c18e c23d a7e2 0ebb 916e a5bc 8ff1 d93c
000002a0: e94e 363b 33b6 97bd 83d8 fcbd 83fc e1bd
000002b0: 34c9 d73d 376d cebd 2c69 afbd c52b 16be
000002c0: bf19 7c3d e4d7 1ebe e397 0fbc b165 0dbe
000002d0: c189 b63d 9a7a 143e 0f05 0bbe d7fc acbd
000002e0: 25d8 a1bd 73a4 cf3d bc72 bcbc c3b2 b13c
000002f0: a396 9e3d 4ffc b43b f492 f43d b572 ffbd
00000300: 0ae9 d8bc 176e cf3c c9ee 1cbe a5a1 e63d
00000310: a6f4 ab3d 5354 bb3c 59a9 6cbc fab9 13bd
00000320: 9bf2 023d bacb c63d 11f5 b6bc 34b3 94bd
00000330: ffca 8b3d 701c 08be cfaf 443d 755e 493d
00000340: 865c e4bd 7776 b1bd f327 ba3d 1a5d 013e
00000350: 4f54 cb3d 42fe 12be 805c e5bd c480 063d
00000360: bf65 00bd 638f 143e 3c8a 9fbd 2e2e 123e
00000370: 8082 a6bd 6516 adbd 9f96 5fbd 6a4b f33d
00000380: 84e7 1dbd c960 03bd a2b5 e03c 7124 62bd
00000390: 12c8 213d 99ee 1fbe 616d 8d3d 3ff6 0abe
000003a0: 0ea2 2fbd 4600 ff3c e957 20bc b4da 8b3d
000003b0: 11e8 f1bb 5073 cc3c c796 ee3b 2bbd f13d
000003c0: ef81 93bc 2df1 1ebc 0ee0 9c3d 295d c83d
000003d0: 8628 37bd e1ce a5bd 560a 12be 563a d13d
000003e0: 2567 933d f4d0 cf3d 9edc b33c 471d bcbd
000003f0: e0b6 e639 d0ab e53d e0fa 01be 5dd3 10be
-0.011534462 0.07174305 -0.026397087 0.123342566 0.046629246 0.12798361 0.07381299 -0.02981343
0.06472692 -0.14566357 -0.021178873 -0.094252214 0.12605794 -0.053857017 0.065560974 -0.14197062
-0.10478972 0.04773025 -0.14020446 0.044191554 -0.15015328 -0.15058266 0.049669772 -0.05243597
-0.06458155 0.07189743 0.05508378 -0.0810427 0.06409787 -0.036860142 -0.104212426 0.08851911
0.08400949 0.032108832 -0.0195732 0.008253245 -0.13111754 -0.13979165 0.07452854 0.014505773
-0.021518005 -0.039650477 -0.04495723 0.03868636 0.0013544073 -0.04292259 0.12731947 0.11603328
0.12640318 -0.14874846 -0.14543028 -0.10795347 -0.041307915 -0.09361216 -0.13691372 0.0877882
0.06916076 -0.03279636 0.10362799 0.026520297 0.1076616 0.08977872 0.033747703 -0.14703974
-0.04984306 -0.048545815 -0.013683207 0.09644846 -0.06535233 -0.015756993 0.08374904 0.11086438
-0.08619824 0.14956038 -0.087073475 -0.07629769 -0.05813573 0.039951872 0.0648832 -0.08390622
0.052137587 -0.058377806 -0.016398424 -0.12079236 0.087385744 0.0133803375 0.11444657 -0.14132911
-0.10314646 -0.05957704 0.09547731 0.10555465 0.098756716 0.10120088 -0.086461246 -0.076339774
0.018704293 0.0019021195 0.08015638 0.090331465 -0.10323069 -0.0994003 0.0044194544 0.03739297
0.11576556 -0.039583303 0.11094396 -0.011605323 0.06708426 0.0975125 -0.0368906 -0.12590471
-0.13683337 -0.041697953 0.019302417 0.02241343 0.05845341 0.13294807 -0.09732056 -0.008311691
0.09337987 -0.10865486 0.07951605 -0.14521183 0.13221295 -0.070763364 -0.078837834 -0.08989562
-0.054435328 -0.1021651 0.09073177 0.015422969 -0.010317665 -0.11281599 0.033533182 -0.108219154
-0.010275131 0.10564277 0.060132995 -0.056977052 0.0540332 0.14629039 0.10339585 0.0932167
0.015206502 0.1119582 0.04987663 0.11376689 -0.15251982 -0.1449877 -0.06710596 0.013682044
0.036005247 0.049246505 -0.104599826 0.057992112 0.016257316 -0.019528426 0.048628274 -0.050415404
-0.11294707 -0.019771783 -0.13100246 -0.039229956 0.094998844 -0.0021802576 -0.020194324 0.026604442
0.002781803 -0.074077986 -0.12345984 -0.11034491 0.10536423 -0.10079425 -0.08564982 -0.14665134
0.06154799 -0.15512043 -0.00876424 -0.13808323 0.08912993 0.14499894 -0.13576148 -0.08446663
-0.079025544 0.10138788 -0.023003928 0.021691686 0.077435754 0.0055232416 0.119420916 -0.124730505
-0.02647831 0.02532105 -0.15325464 0.112613 0.08396272 0.022867357 -0.0144446725 -0.036066033
0.031969648 0.097068265 -0.022333654 -0.07260743 0.06825828 -0.13292098 0.048019227 0.049162347
-0.1115046 -0.086651735 0.09089651 0.12633172 0.0992819 -0.14354804 -0.111992836 0.032837644
-0.031347033 0.14507823 -0.07790038 0.14275429 -0.0813036 -0.08451537 -0.054587003 0.118796185
-0.03855087 -0.032074723 0.02743036 -0.055210534 0.039497443 -0.15618362 0.06905628 -0.13570498
-0.042879157 0.03112806 -0.009786584 0.06828824 -0.007382401 0.024957329 0.0072811577 0.11803659
-0.018006293 -0.0097010555 0.076599225 0.09783394 -0.04471638 -0.080961 -0.14261755 0.10216205
0.07197408 0.101472765 0.021955784 -0.09185272 0.0004400527 0.11214411 -0.12693357 -0.14143129

sequential/dense_1/MatMul f4 [7, 16]
00000000: 3c9e 593e ef1b 033f 279d e3be aec8 dfbe
00000010: 06a8 de3d 9832 753e 8c80 943d 7369 19bf
00000020: 9577 5cbe f8d6 7dbd ed6c da3e c1fd 6dbe
00000030: b487 6d3e 72dd f0be 5b5f 623e a905 c43e
00000040: 3a86 de3e 1802 e4be c22b ddbe 262d 60be
00000050: 08c0 253f 63d9 a33e f533 4a3d 3ba0 b8be
00000060: 3306 023f f266 aabe 810b 92be f6dd cbbe
00000070: 9137 cc3e 6cea 0c3e 13a1 413e 65ac c03e
00000080: 720b 913e d6f0 dfbd 43fd 063f c716 f13e
00000090: 0156 0abc 0567 b73e 57d9 abbd d1ca 5ebe
000000a0: 3460 093f df8e 543d 3e63 043c 3233 cbbe
000000b0: 6687 bd3e 4599 9e3e 7bf8 343e d41e 87be
000000c0: cb1a f0bc 8626 e43e b356 513d 038d 2a3e
000000d0: 7dd3 efbe 45c8 943e 27a7 e4be 4a12 06bf
000000e0: 2d71 9a3e 5ff4 c8be 0edd af3d 8af0 123f
000000f0: dae1 b3bd efdd 8f3e 1aa4 a13d 6aa6 6f3d
00000100: a81b 3b3e c4c2 243d f1c3 643e f566 cc3d
00000110: 0075 813a 33e3 1dbe 32a7 d53e 8a62 c83e
00000120: 4f43 963d ebff 9ebe db60 d13e 4b35 66be
00000130: 8e1c a9be ea2b 0c3e 7cec 41be 1407 043f
00000140: 239a f23c caeb 5cbe 5781 293d 3a3e 8e3e
00000150: 813e 243e f457 a53e 55de 9e3d 9e89 fbbd
00000160: 97b4 8abd 7cef 89bd 05d7 c73e d6c9 163f
00000170: 5d7f 5cbe 25b4 133e 8424 ec3e f21b 2e3e
00000180: a24a 31be a08c 563e ff80 8f3e f75c b13e
00000190: 95fd 1fbe 5df0 b8be e86b 013e 3820 523e
000001a0: fd33 32be fd26 bb3e a1f9 09bf daee c9be
000001b0: b894 97be b953 33be 86a0 773e f0a1 e43e
0.21251768 0.512145 -0.44455835 -0.43707794 0.10871892 0.23945081 0.07251081 -0.5992653
-0.21529992 -0.06197259 0.4266123 -0.2324133 0.23196298 -0.4704395 0.22106688 0.38285568
0.43461782 -0.44532847 -0.43197447 -0.21892223 0.6474614 0.3200179 0.049365956 -0.36059746
0.5079071 -0.33281666 -0.28524402 -0.3981778 0.39886144 0.137613 0.18909101 0.37631527
0.28329045 -0.10934608 0.52730197 0.4708769 -0.0084433565 0.35820785 -0.08391064 -0.21757056
0.5366242 0.051894065 0.008080302 -0.39687496 0.37017363 0.3097631 0.17672913 -0.26390707
-0.02930965 0.4456064 0.051108073 0.16655354 -0.4684104 0.29059044 -0.44658777 -0.52371657
0.3016447 -0.3924894 0.08587085 0.57398283 -0.08783312 0.2809901 0.07892628 0.058508314
0.18272269 0.040224805 0.2234037 0.09980575 0.0009876788 -0.15418701 0.41729122 0.3913768
0.07337057 -0.31054625 0.40894207 -0.22481267 -0.33029598 0.13688627 -0.18937868 0.515733
0.029614514 -0.21574321 0.041383114 0.2778185 0.16039468 0.32293665 0.0775725 -0.12282108
-0.06772726 -0.06735131 0.39031234 0.5890173 -0.2153296 0.14424188 0.4612161 0.17002848
-0.17313626 0.20952082 0.28028104 0.3464124 -0.15624078 -0.36120883 0.12638819 0.20520103
-0.17402644 0.36553183 -0.5389653 -0.39440042 -0.2960565 -0.17512406 0.24182329 0.44654799

sequential/conv2d/Conv2D f4 [8, 3, 3, 1]
00000000: 1659 42bf 93c1 613f 1a32 8abe 866e cdbe
00000010: 586c 363e 3a14 153f 39b5 dabe 38ba 253f
00000020: aadc 24bf ddb1 02bf 6d31 49bf 2b41 0a3f
00000030: ce24 bcbe 1e60 4ebf 5923 32be ae1c 153f
00000040: 485f 3cbf 6a73 19be db4f efbd 7077 bb3d
00000050: dac4 9f3e c076 1a3e a3b0 18bf 4d40 f2bc
00000060: 5321 383f 810b ce3e 3c0b 4fbf 9a87 42bf
00000070: 49f1 2f3f c3df c4be 1075 563d d2f7 443f
00000080: e5ad 9a3e 7dc3 043f 160f 843b 671d bf3e
00000090: 2d67 be3e 58db edbe 3900 af3e 9ddd 4bbf
000000a0: bac4 dd3e cb6e 1dbf a1cf 24bf 6e33 4a3f
000000b0: 5621 00bf 64c2 efbe c8e9 233f ee2e 9c3e
000000c0: 6fe6 1bbf 95da f0be 701a fdbe d48f 773d
000000d0: 3b9d 573f 7e47 16bf 82a9 a9be 8859 0fbe
000000e0: b273 a43e 2da3 723f 03af 653f e467 25be
000000f0: aea0 c53e 8ffb 46be b74d ab3e 718a 70be
00000100: 2935 c6be 5c98 2dbf 19c0 2dbf 1f0e 9fbd
00000110: d16e 12bf 4d86 683e f09f 4a3f 5b26 763e
-0.75917184 0.88185996 -0.2699135 -0.40123385 0.17814767 0.5823399 -0.42716387 0.6473727
-0.64399207 -0.5105265 -0.7859104 0.5400569 -0.3674683 -0.80615413 -0.17396297 0.58246887
-0.7358289 -0.14985433 -0.11685153 0.0915364 0.31204873 0.15084362 -0.59644526 -0.029571677
0.7192585 0.40243152 -0.8087652 -0.7598816 0.68727547 -0.38451967 0.052357733 0.76940644
0.30210796 0.5186079 0.0040301187 0.3732712 0.37188092 -0.46456409 0.34179857 -0.7963503
0.43314153 -0.6149718 -0.64379317 0.78984725 -0.50050867 -0.46827996 0.64028597 0.30504555
-0.6089849 -0.47041765 -0.49434233 0.0604399 0.8422429 -0.5870284 -0.33137137 -0.13998997
0.3211952 0.94780236 0.8972017 -0.16152912 0.3859915 -0.194319 0.3345773 -0.23490311
-0.38712433 -0.67810607 -0.6787124 -0.07766365 -0.5720034 0.22707482 0.79150295 0.24038069

sequential/conv2d_1/Conv2D f4 [16, 3, 3, 8]
00000000: 82e5 6e3d 9edd e0bd f54c 6d3e 5021 6ebe
00000010: 18af 763e 3d27 a13e 74bc cbbd 2e9d 773e
00000020: b3c3 8d3e 8039 7dbd 7c8f 27bd 9244 ed3d
00000030: 7d99 733a 4963 c13d d451 64be 58cd 4abe
00000040: 4523 fc3d 6fbb c0bd 566d 3e3b 3760 91be
00000050: 5fb7 693d f65d 75be 5ff5 4e3a 364f 2bbd
00000060: 71b2 d53d f31c 283e 7a26 2d3e 05ba 84bd
00000070: ee0f 71be 9662 e93d b07a 853e aa77 49be
00000080: 9911 02be 33df b73d c184 dcbd 85d8 1fbd
00000090: 2bd0 8cbe f2d9 7ebe 855e 823d eea4 8d3d
000000a0: 4d8c 35be 7168 43be 8d27 7bbe 762d 55be
000000b0: b9f2 20be 28eb 51be 384e bfbc 5e0b dd3d
000000c0: 3da8 c23d 0981 213e d886 a33e dd93 483d
000000d0: 1d0e c9bd 6381 05be 825e 4ebe 7d0e e53c
000000e0: 0eca 38be 2256 b23d 680f 903e 17e3 2dbd
000000f0: 8466 b33d de78 36bd 31fa 5abe 7206 89be
00000100: 8e85 d4bc 0381 283e ce26 bb3d 8e95 523d
00000110: daa4 05be 096c c4bd fcc7 053e c244 8d3e
00000120: 79d2 efbd 98c4 8c3e 3caa 15bd 2e53 083e
00000130: 544c 5dbe 445d 8b3e a921 85be 005c 753d
00000140: 9125 09bd 430f 59be dd6e 51be 0940 41be
00000150: 700c bfbc e137 8dbe b623 02be d0ec 43be
00000160: d4e7 223e 1ae0 57be a185 883e d52e 80be
00000170: e84a 313e 780f 353e ebf1 143e 7a3a 60be
00000180: fff6 71be d716 5a3e e8c6 2d3e 4f5d a13e
00000190: f1c7 543d ab14 12be da42 a03e bd99 5b3e
000001a0: 6f6e 823d c051 823e d350 823e b5d4 67be
000001b0: 1618 7d3e 5f6c 14bd 0a1f 8c3e edb3 b93d
000001c0: 7601 443e dcd5 823e e0e5 72be c741 493e
000001d0: 0d40 85bc c771 8cbe 2444 2f3e 79aa 74be
000001e0: 38c2 073e c42e 313e 8c49 52be ff60 8c3e
000001f0: dcbf 923d 685c c43d 3f32 66be be6f 8fbe
00000200: f941 29be 922b 483e dad6 2dbe 04af 2a3d
00000210: 02cf 65be 6ae9 233e 3014 29be 8318 5ebe
00000220: 0d5a 253e 1622 353e 822f 1dbd 5611 4dbe
00000230: 8426 c1bd e669 6abd bd9c 69be d93d 6d3d
00000240: 6caf 973d 26f7 933d 913c 9c3d af2e 5038
00000250: a84a cbbc 0b3b 923e 152e ee3d 73c4 78be
00000260: c281 b0bd e019 a8bd 6d1b 16be 3607 b83c
00000270: 6ff8 e4bd 7fa5 733e 3ff3 5bbe 9927 75bd
00000280: 2696 883e 4db6 44be 79ff ff3c 1bf3 be3d
00000290: 9743 76bc d2da e4bd c276 07be dc87 b93c
000002a0: 1118 86be d7fa 87be f628 823e 9759 16be
000002b0: 0e0a 933e d19f 443e c979 ef3b 8672 013e
000002c0: 4733 933e 4667 27bd 2fe4 963e d3e1 54be
000002d0: 282e 1fbe f4c1 d13c 69cc e0bd 6810 8fbe
000002e0: 3d24 ec3b 2bc0 49be 8796 503d 7f74 93be
000002f0: 0d3c ef3d f21a 123d 80c7 2fbe 21a8 453e
00000300: 489b 3e3e 6640 bbbd 094a 243e 14b6 513e
00000310: c28f 933d d3c3 06bd 65e4 213e 2e33 343e
00000320: efa9 8c3e e2a2 82be e540 663e 6fa6 ac3d
00000330: 23a9 d03d 0d28 803e 36d5 e53d 3f5d 943e
00000340: bb75 b43c b448 5a3e 618e 9c3d 5e08 233e
00000350: aa7f a1bd 9a12 9f3e 4bd9 65bd 6820 743e
00000360: 98df 693e 9fd9 4b3e e672 5dbe aa6f ab3e
00000370: 82c4 2a3e e3de e93c d7c9 30bd 2022 2a3e
00000380: e2a4 bd3e 9d56 a43b a42e 633d 4831 193e
00000390: b04b 943e b577 17bd 13d5 a73d 5f13 a73e
000003a0: 4355 71be dea4 733d d2f7 853e cdf7 22be
000003b0: 46f3 6bbe 7e58 a23e df39 753e ab32 183e
000003c0: 3b3b 9ebd 76d2 d0bb 0718 e63d 4a2b 483e
000003d0: d9a1 6b3e dd72 9e3d 3758 593b c2d0 34bc
000003e0: 04c2 a03e 7340 0a3e 2fd8 88bc e20b 3d3e
000003f0: e96a 18bd 24ae a23e 1b6c 3abd 9de2 503d
0.058324344 -0.1097977 0.23173888 -0.23254895 0.2409023 0.3147525 -0.09948054 0.24181053
0.2768837 -0.061822414 -0.04090832 0.115853444 0.0009292586 0.09442765 -0.2229684 -0.19804895
0.12311415 -0.0941075 0.0029056869 -0.2839372 0.057059642 -0.23961625 0.00078948395 -0.04182359
0.104344256 0.16417293 0.16909209 -0.06480793 -0.23541233 0.11395757 0.26070166 -0.19674554
-0.12702025 0.08978119 -0.10767508 -0.03902485 -0.2750257 -0.24887827 0.063656844 0.069162235
-0.17729302 -0.1908281 -0.24526806 -0.20818123 -0.15717591 -0.20499861 -0.023352727 0.10793184
0.09504745 0.1577188 0.31938815 0.04896914 -0.09817145 -0.13037638 -0.2015324 0.02796101
-0.18045828 0.08707835 0.28136754 -0.042452898 0.08759788 -0.04454886 -0.21384503 -0.2676273
-0.02594259 0.16455464 0.09138261 0.051412158 -0.13051167 -0.095909186 0.13064569 0.2759152
-0.11710066 0.2749374 -0.0365393 0.1331298 -0.21611148 0.27219594 -0.26002243 0.05990219
-0.03348309 -0.21197228 -0.20452447 -0.18872084 -0.02332136 -0.27581695 -0.12708935 -0.19133306
0.15908748 -0.21081582 0.2666445 -0.2503573 0.1731373 0.17681682 0.1454541 -0.21897307
-0.23629378 0.21297775 0.16970408 0.315165 0.05194849 -0.14265697 0.31301004 0.21445365
0.0636872 0.25452995 0.2545229 -0.22639735 0.2471622 -0.036236163 0.2736743 0.09067521
0.19141182 0.25553787 -0.23720503 0.19653998 -0.016265893 -0.27430555 0.17115837 -0.23893155
0.13257682 0.17302996 -0.20535868 0.27417752 0.071655005 0.095879376 -0.22480105 -0.2801494
-0.16529073 0.19547871 -0.1697649 0.041670814 -0.22442248 0.16007009 -0.16511607 -0.21689038
0.16147633 0.17688784 -0.038375385 -0.20026144 -0.094311744 -0.0572299 -0.22813697 0.05792031
0.07406506 0.07224874 0.076287396 4.9634542e-05 -0.024815872 0.2856067 0.11629883 -0.2429369
-0.08618499 -0.0820806 -0.146589 0.022464376 -0.111801974 0.237936 -0.2147951 -0.059852216
0.26677054 -0.19210167 0.031249749 0.093237124 -0.015030763 -0.11174549 -0.13228896 0.02264779
-0.26190236 -0.26558563 0.25421876 -0.14682613 0.2871861 0.1920159 0.007308219 0.12641343
0.2875006 -0.040869974 0.29470965 -0.2078927 -0.15544951 0.02560518 -0.10976488 -0.27942204
0.0072064684 -0.19702213 0.050924804 -0.28799817 0.11681376 0.03567023 -0.17165947 0.19302417
0.18613923 -0.091431424 0.16043867 0.20479614 0.07205154 -0.032901596 0.15809782 0.17597649
0.274734 -0.25514895 0.22485693 0.08430182 0.1018851 0.25030556 0.112223074 0.2897739
0.022028795 0.21316797 0.07644344 0.1592116 -0.07885678 0.3106888 -0.05611543 0.23840487
0.228392 0.19907235 -0.21625862 0.3348363 0.16676524 0.028548663 -0.04316124 0.1661458
0.37039858 0.005015208 0.0554644 0.14960206 0.28963995 -0.036979396 0.081949376 0.32631966
-0.23567681 0.0594834 0.26165634 -0.15914841 -0.2304202 0.3170814 0.23947857 0.14863078
-0.07726141 -0.006372745 0.112350516 0.19547763 0.23010959 0.07736752 0.0033164152 -0.0110361
0.31398022 0.13501148 -0.016704647 0.18461564 -0.037211332 0.31773484 -0.045513254 0.050997365

sequential/conv2d_2/Conv2D f4 [16, 3, 3, 16]
00000000: 29ba 273e c58d eabb a67b 763d 5eaa 0abd
00000010: dd1d bfbd 7f7d 563e 5ac1 01be 5982 23bd
00000020: d09a 603e 5917 febd 0e8b 233e b58f d53d
00000030: d2e9 9a3e dd0a 03bd 4d96 de3d 2200 973c
00000040: 8d21 813d 31e6 963d f58f 033e 8a6d 183e
00000050: 46e5 98bb d26d 09bd e80d cabd c3a9 923d
00000060: 28fb df3b 0100 603c dd2a 383b 4a13 2bbd
00000070: a7fe 4d3b a77f 0a3d bc82 56bd 4696 443d
00000080: bcbf 8bbd d808 ef3b 50d7 5c3c 62f0 953e
00000090: b744 abbb 701e fbbd 959b 2b3e 4da1 793d
000000a0: cb2d e43d 9015 603e 0c31 32be 6db2 82bd
000000b0: 0e57 323c 3b81 acbd d661 1c3e 487c 07be
000000c0: 7862 e3bd df3a 343e dfac f9bd b0ab 943d
000000d0: 1425 9e3d 9bea 31bd 3c92 14be 162f c73d
000000e0: 41b6 e0bd 79bd c5bc 83cc 443d 97a4 c9bd
000000f0: 462a 34bd 9bfb 67bd 127a bebc 647e 703d
00000100: 656c 16be 3639 093d 2cd9 843d 7da7 a1bd
00000110: 2928 d5bc 6be8 8f3d aa77 ad3d 7a82 3c3e
00000120: efb3 b1bd 8545 25be 3e5e 423e d7ac 4e3e
00000130: 5964 0ebe 7ea8 a83c 0978 59bd 6bb3 08be
00000140: df6e 273e 1c38 a33d 002d 07bd e86b 3f3e
00000150: 3d52 333d e71a 2c3e 1e1c 0a3e 9ab4 233e
00000160: 6092 683e c185 8e3c a78c 533e 5df8 1dbd
00000170: 384d 013e 763b b03c 8121 123e 878b 14be
00000180: a1be 153d 5ee6 2a3e 8fa2 e53d 53da 073d
00000190: 5868 293d c049 1a3e c422 1ebe 5b24 c8bc
000001a0: 8a3a 3d3e c6d6 c23c d64a ab3d 17a9 c43c
000001b0: a96d 34bd 2c6c ccbd 9eba 4e3e 9c58 34bd
000001c0: 4fe6 db3d 8092 98bd 331d 3139 cb92 13be
000001d0: 82f0 c1bd 4c87 623d 8a5d 0cbe 56cd 3b3e
000001e0: 6f19 943b c493 373e 6d57 ed3d ee26 3dbd
000001f0: 5b4a 4fbc 12f6 2d3e 80ff 213e d02b 46be
00000200: ac18 8e3d a1cb 25bd 457f e43c 5dbe a6bd
00000210: dad7 063d 9eb2 10be 0929 553d aa6c 05be
00000220: b395 29be 43b6 1a3b 0206 14be 27cb aebd
00000230: b7fe 93be 3df5 1a3e 851a 3b3c 1842 e33c
00000240: 4d60 9e3c 9960 a83d f7ae 9abd 171f 7c3e
00000250: a7df 4dbe c1c0 3b3e cd73 a83d 5fa3 ddbd
00000260: fb00 1fbb 0c3c 073e 1a64 a13d 9d4f c9bd
00000270: 08b0 753e 90e3 24bd 9551 1bbd 2d41 96bd
00000280: f83b e93d ce33 d23d dd66 6e3e a0d2 8a3e
00000290: 9974 cabd 0cdc c3bc 1292 633e 71f2 393e
000002a0: 7d0b 353e d4ca 113e 26ed bfbd 2462 e2bd
000002b0: 04a9 9b3e 0335 c7bb 3e86 c83d 1cb5 b1bd
000002c0: 19d2 f63d fd3d 453e 4bbf ba3b a381 0f3d
000002d0: 1820 073e 85ee 283e 8d69 6b3c ceb8 85bd
000002e0: 5ef3 49be ddb4 df3d 8ef4 4e3e 62c0 1ebe
000002f0: 73fb 0d3e b3a5 72bc 2310 b33c 70d2 40bd
00000300: cc0d 13be 08fc 8fbd 2865 08be 9c6e 803e
00000310: 20a9 323e f535 463d 10cb 003e e3ae 1a3e
00000320: 9d9f 40be bdde 19be 3282 e7bd d29e e2bd
00000330: 8a70 443e 9053 063d 297e 1d3e 0784 38be
00000340: efaf 313e 94bb 05be 1c19 8c3d 25b4 573e
00000350: 5114 ddbd 45b6 a1bc bd04 533e 5378 14be
00000360: 8d67 49bd ad7e 11be fe30 183e 20e2 4fbd
00000370: 95b8 413e 85e1 85bb a9de 293e b88c 9d3d
00000380: 217e 303e 8f75 a83d ffb9 9fbd bfef 2c3e
00000390: 4c0f 08be d161 1e3d 1503 f13d 6571 e4bd
000003a0: 839a 10bd a28b 253d e8cb 2f3e cc92 7a3d
000003b0: 67f1 f93d e10b 073d e806 7fbc 7dd3 823d
000003c0: 62e3 cbbd fab8 6dbd c7b6 18be 4498 a63d
000003d0: e485 4e3e 92cb 1c3e bb27 bfbd 84d6 e53b
000003e0: 989c 1c3e c8d4 09bc f2e1 b03d e2fe 97bd
000003f0: 5a6a 98bc 7d83 2ebe d709 943b 7523 0d3e
0.16379608 -0.0071580135 0.060176514 -0.03385388 -0.09331868 0.2094631 -0.12671414 -0.03991923
0.21934056 -0.12406797 0.15971014 0.104278006 0.30256516 -0.031992782 0.10868511 0.01843268
0.063052274 0.07368124 0.12847884 0.14885536 -0.0046660034 -0.033552 -0.09865934 0.07161286
0.00683536 0.013671876 0.002810172 -0.041766442 0.0031432302 0.033813145 -0.05237077 0.047994874
-0.0682368 0.0072947554 0.013479069 0.2928496 -0.0052266973 -0.12261665 0.16758569 0.060944844
0.11141547 0.21883225 -0.17401522 -0.06381688 0.010885013 -0.08423086 0.15271696 -0.13231003
-0.11102766 0.17600583 -0.12191176 0.07259309 0.07721916 -0.043436628 -0.14508909 0.09725778
-0.10972262 -0.0241382 0.0480466 -0.09845846 -0.043985628 -0.056636434 -0.023251567 0.058714285
-0.14689787 0.033501826 0.06486735 -0.07893274 -0.026020126 0.07026752 0.0847009 0.18409148
-0.08676898 -0.16139801 0.18981263 0.2018312 -0.13905467 0.020588156 -0.05309299 -0.13349693
0.16350888 0.079696864 -0.0330019 0.18693507 0.0437796 0.16807137 0.13487288 0.15986863
0.22712088 0.017397763 0.20659123 -0.038566936 0.12627113 0.021512728 0.14270593 -0.1450635
0.03655875 0.1668944 0.11212646 0.033167195 0.041359276 0.15067196 -0.1544295 -0.024431398
0.18479362 0.023784053 0.08363883 0.02400641 -0.044049893 -0.0998157 0.20188376 -0.044029817
0.10737287 -0.07449818 0.00016890913 -0.14411466 -0.09469701 0.05530481 -0.13707557 0.18340048
0.0045196335 0.17927462 0.11588941 -0.046179704 -0.012652005 0.169884 0.15820122 -0.1935265
0.069382995 -0.0404774 0.027892718 -0.08141778 0.032920696 -0.14130637 0.052041087 -0.13029733
-0.16561012 0.0023607172 -0.14455417 -0.08534842 -0.2890527 0.15132613 0.011419897 0.027741477
0.01933303 0.082215495 -0.07552903 0.24621235 -0.20104848 0.18335249 0.08225212 -0.10822176
-0.002426206 0.132065 0.07880421 -0.09829638 0.23992932 -0.040256083 -0.0379196 -0.0733665
0.11388391 0.10263787 0.23281427 0.2711382 -0.098855205 -0.023908637 0.2222369 0.1815889
0.17680164 0.14237529 -0.09371404 -0.11053875 0.30402386 -0.0060793175 0.0979123 -0.08677122
0.12051792 0.19261928 0.0056990734 0.03503574 0.13195837 0.16497238 0.014368427 -0.06529389
-0.19721743 0.10923169 0.20210478 -0.15503076 0.13865452 -0.014810014 0.02185828 -0.04707569
-0.14360732 -0.07030493 -0.13319838 0.25084388 0.17447329 0.0483913 0.12577462 0.15105776
-0.18810888 -0.15026374 -0.1130413 -0.11065449 0.19183555 0.032794535 0.15380158 -0.18019114
0.1735227 -0.13059837 0.06840727 0.21064813 -0.10794891 -0.019740233 0.20607276 -0.14499025
-0.04917102 -0.14208479 0.14862439 -0.05075276 0.18918069 -0.004085722 0.16588844 0.076928556
0.17235614 0.082255475 -0.07799148 0.16888331 -0.13287085 0.038667504 0.11768166 -0.11154441
-0.035303604 0.040416367 0.17167628 0.061175153 0.12204247 0.032970313 -0.015565611 0.063879944
-0.09955479 -0.058037736 -0.14913474 0.08134511 0.20168263 0.15312031 -0.0933375 0.0070140976
0.15294111 -0.008412547 0.08636846 -0.07421662 -0.0186054 -0.17042346 0.0045177746 0.13783057
