training/output/gesture_model.tflite (tflite, 34576 bytes, 10 tensors)

sequential/conv2d/BiasAdd/ReadVariableOp/resource f4 [8]
0	0xb890ce5d	-6.904893e-05
1	0x3d41c6c7	0.04730871
2	0xb953835c	-0.00020171463
3	0xb802da5f	-3.119779e-05
4	0x3e76a761	0.24087287
5	0x3a999044	0.0011715968
6	0xb85dc0b5	-5.286998e-05
7	0x3e6ab940	0.2292223

sequential/conv2d_1/BiasAdd/ReadVariableOp/resource f4 [16]
0	0x3db5c1ac	0.088748306
1	0x3df9cd25	0.12197331
2	0xbb943be0	-0.004523739
3	0x3d4a3134	0.04936333
4	0x3d660206	0.056154273
5	0x3c335563	0.010945651
6	0xbc762c21	-0.01502517
7	0x3c861b8b	0.016370555
8	0x3ba0b3a6	0.0049042283
9	0x3c3f5601	0.01167822
10	0xbca44700	-0.020053387
11	0x3d22c917	0.039742555
12	0xbb702a10	-0.0036646165
13	0xbc8835bf	-0.01662719
14	0xbc564b65	-0.013079499
15	0x3d692493	0.056919646

sequential/conv2d_2/BiasAdd/ReadVariableOp/resource f4 [16]
0	0x3d114faf	0.035476383
1	0xbbc38d59	-0.0059677777
2	0x3cc44bbe	0.023961898
3	0x3d91ea16	0.071247265
4	0xbd079ed8	-0.03311047
5	0x3d5de9c8	0.05417803
6	0x3ca5e05b	0.020248583
7	0x3d77b767	0.06047764
8	0xbdb9f0d6	-0.09079139
9	0x3d6e6f11	0.05821139
10	0x3d368a30	0.04456538
11	0xbd80c2d4	-0.062871605
12	0x3b012020	0.0019702986
13	0xbd1ca6dc	-0.038245067
14	0xbc82068d	-0.015872264
15	0xbc41a18c	-0.011818301

sequential/dense/BiasAdd/ReadVariableOp/resource f4 [16]
0	0xbd02cfd2	-0.031936474
1	0xbb5b9729	-0.0033506847
2	0x3d3d9de7	0.046293166
3	0x3a41d895	0.0007394639
4	0xbc939564	-0.018015571
5	0x3cc81487	0.02442385
6	0xbc3b68e7	-0.011438585
7	0xb9bed51f	-0.00036398412
8	0x3c60009c	0.01367202
9	0xbd7e46e5	-0.06207933
10	0x3d932b98	0.07186049
11	0x3dbed3c7	0.09317737
12	0xbc847e09	-0.01617338
13	0xba8d1e9c	-0.0010766569
14	0xbc8d6e56	-0.017264526
15	0xbbdf3c85	-0.0068126344

sequential/dense_1/BiasAdd/ReadVariableOp/resource f4 [4]
0	0xbacbd3b5	-0.0015550765
1	0x3e11e07e	0.14245793
2	0xbdc038aa	-0.09385808
3	0xbd40b1c3	-0.047044527

sequential/dense/MatMul f4 [16, 256]
0	0xbbdcd066	-0.00673871
1	0xbddf8b97	-0.109152965
2	0xbe30efa0	-0.1727891
3	0xbdabff1b	-0.08398267
4	0x3d1bb8e6	0.03801813
5	0xbd0d614a	-0.03451661
6	0x3d58bf56	0.052916847
7	0x3dd9f408	0.106422484
8	0x3d3692ea	0.044573702
9	0xbdbb2539	-0.09137959
10	0xbe123041	-0.1427622
11	0xbdd8ba4d	-0.10582409
12	0xbdd6cf1b	-0.10488721
13	0x3d7c08e5	0.06153192
14	0xbded1217	-0.11575716
15	0xbe149f8e	-0.1451399
16	0xbdf57d67	-0.11986809
17	0x3d241862	0.040062316
18	0x3db77d92	0.089594975
19	0xbd43c493	-0.04779489
20	0x3ac1d78f	0.0014788973
21	0x3e0c7a05	0.13718422
22	0x3e16799f	0.14694832
23	0xbdc50aa6	-0.09621172
24	0xbc2238c1	-0.0099012265
25	0xbdf85833	-0.12126198
26	0x3e1e7046	0.15472516
27	0x3e0219cf	0.12705158
28	0xbe0c3afd	-0.13694377
29	0x3e153aa3	0.1457315
30	0x3dda7b2b	0.10668024
31	0x3c8912c0	0.016732574
32	0x3e172d7e	0.14763448
33	0x3e2983cf	0.16554187
34	0x3ca34c6e	0.019933905
35	0x3d37548b	0.04475836
36	0xbd28edf3	-0.04124255
37	0x3cb81e02	0.022475246
38	0xbc82c553	-0.015963232
39	0xbddecf5c	-0.108793944
40	0x3c5bab2c	0.01340751
41	0x3dae642c	0.085152
42	0xbdc34832	-0.095352545
43	0x3e4dbd3e	0.20091721
44	0x3d40ca3c	0.047067866
45	0x3c33a3f3	0.0109643815
46	0xbd158091	-0.036499564
47	0x3e15d816	0.14633211
48	0xbcb0bc78	-0.021574244
49	0x3d6fb65e	0.05852353
50	0x3d84fd70	0.06493652
51	0x3d500dec	0.050794527
52	0x3d93cc73	0.0721673
53	0xbdda1822	-0.10649134
54	0x3db81da3	0.08990028
55	0xbddd7eb8	-0.10815185
56	0x3e26779a	0.16256562
57	0xbe0091b9	-0.12555589
58	0x3db4a8ba	0.088212445
59	0x3d23961d	0.03993808
60	0xbc892f76	-0.016746264
61	0xbc95ae85	-0.018271694
62	0x3e23d76c	0.16000146
63	0x3d053422	0.03252042
64	0x3ccfe3c2	0.025377158
65	0x3daa3a8d	0.08311949
66	0xbe1463af	-0.14491151
67	0x3d91ea6f	0.07124793
68	0x3d94ace6	0.0725954
69	0x3ddc0a29	0.107441254
70	0xbd801ff9	-0.06256098
71	0x3dee51fe	0.116367325
72	0xbd276de9	-0.040876303
73	0x3e18c2d3	0.1491807
74	0x3cb09a0b	0.021557828
75	0xbcd20772	-0.025638316
76	0xbdfeb769	-0.124373265
77	0x3db85b71	0.09001816
78	0x3e1dd3a4	0.15412766
79	0xbc2a58a6	-0.010397112
80	0x3dc80c41	0.09767962
81	0x3d276716	0.040869795
82	0x3dec6670	0.11542976
83	0xbdc317d3	-0.095260285
84	0x3d21a60c	0.039464995
85	0x3e0889d1	0.13333823
86	0xbd8ee0e1	-0.06976486
87	0x3cbd230f	0.023088006
88	0x3e2b9452	0.16755798
89	0x3e1c769d	0.15279622
90	0xbdae8416	-0.08521287
91	0x3c9bc7a4	0.019016095
92	0x3d41384f	0.04717284
93	0xbdafc2ed	-0.08582101
94	0x3d9b6894	0.07588306
95	0x3d3bf0ef	0.04588407
96	0x3d2bde07	0.04195979
97	0xbcc15d91	-0.023604186
98	0xbdf7336d	-0.120703556
99	0xbe14b977	-0.14523874
100	0x3dfbcd58	0.122950256
101	0x3d3ce46b	0.046116274
102	0xbd88dce4	-0.066827565
103	0xbdd97a60	-0.10619044
104	0x3d01a55d	0.031651843
105	0xbdf4631d	-0.11932967
106	0x3db71e1b	0.08941289
107	0xbd9124c1	-0.070870884
108	0xbe01cabf	-0.12674998
109	0xbe1be636	-0.15224537
110	0x3be9a1c6	0.0071298806
111	0x3e0523cc	0.13001937
112	0xbe31d2df	-0.17365597
113	0x3c058be9	0.008151033
114	0x3c9b3ed5	0.01895086
115	0x3ba73125	0.005102294
116	0x3d4d9886	0.050194286
117	0x3d6dad49	0.058026586
118	0xbc29e2fd	-0.01036906
119	0xbbc44e87	-0.0059908065
120	0x3dd643f5	0.104621805
121	0x3c31bc29	0.0108480835
122	0xbd773e03	-0.060361873
123	0xbe12b40d	-0.14326496
124	0x3d4caa9f	0.049967404
125	0xbd09a358	-0.033603042
126	0x3c987b92	0.01861361
127	0x3d58490d	0.05280404
128	0x3e31a7d7	0.17349182
129	0xbdf0a690	-0.11750519
130	0xbdaeb104	-0.08529857
131	0xbdd29ebb	-0.10284182
132	0x3e06049a	0.13087693
133	0xbe0c71a0	-0.1371522
134	0x3db623ed	0.08893571
135	0xbe1b4ea0	-0.15166712
136	0xbb57c938	-0.0032926332
137	0x3dab672f	0.0836929
138	0xbd3f0076	-0.0466313
139	0x3d0e5024	0.034744397
140	0xbe06a30e	-0.13148138
141	0x3d59eaea	0.053202547
142	0x3e0139a3	0.12619643
143	0x3db29085	0.08718971
144	0xbc70a563	-0.014687869
145	0x3ce9d3f1	0.028543444
146	0xbe0529e5	-0.13004263
147	0xbe08e678	-0.13369167
148	0x3c0e06c8	0.008668609
149	0xbd179928	-0.037011296
150	0x3beed0f3	0.0072880923
151	0x3db5d1b8	0.08877891
152	0xbde25190	-0.11050713
153	0xbd9f9815	-0.07792679
154	0x3cfdb154	0.030968346
155	0x3d9a4d5d	0.07534287
156	0xbc841ac2	-0.01612604
157	0x3dbc8723	0.09205463
158	0x3dd67819	0.104721256
159	0x3dd2fbf4	0.103019625
160	0x3cf47f8b	0.029845973
161	0xbde4500e	-0.11148082
162	0xbcad574f	-0.021159796
163	0x3deb8ed9	0.115018554
164	0xbe1a29c9	-0.15055002
165	0xbe2e0d7a	-0.16997328
166	0xbe01b53b	-0.1266679
167	0xbdf255e6	-0.1183279
168	0xbb207ce7	-0.002448851
169	0xbd6e6422	-0.058200963
170	0xbd97b096	-0.07406728
171	0xbe1fd4c8	-0.15608513
172	0x3dd37e64	0.103268415
173	0xbd3124f4	-0.043248132
174	0x3da7b8c1	0.08189536
175	0xbc094fa6	-0.008380806
176	0xbe057b16	-0.13035235
177	0x3d3736f3	0.044730138
178	0x3dd5e7ec	0.10444626
179	0xbe3708a4	-0.1787439
180	0xbdc08483	-0.094002746
181	0x3d962cca	0.073327616
182	0x3c7fff37	0.015624813
183	0x3deab177	0.1145963
184	0xbcaa2884	-0.020771272
185	0x3cb6b657	0.022303743
186	0x3ce76a0f	0.028248815
187	0xbd21a0af	-0.03945988
188	0x3e094b27	0.13407575
189	0xbd9b9970	-0.07597625
190	0x3d80fe63	0.062985204
191	0x3bb6d47b	0.005579529
192	0x3e157a80	0.14597511
193	0xbdb4519b	-0.088046275
194	0x3b75415c	0.003742299
195	0xbdd8b262	-0.10580899
196	0xbda4c9b2	-0.08046283
197	0x3d6760e7	0.056488898
198	0x3d3a1e5d	0.045439113
199	0x3d5715ec	0.05251114
200	0x3de0730f	0.10959446
201	0xbe074558	-0.13210046
202	0xbc9ae9df	-0.018910347
203	0x3b03a0be	0.0020084823
204	0x3d666dd3	0.05625708
205	0x3d34596d	0.044030596
206	0x3e38c437	0.180436
207	0xbdd5ad19	-0.104334064
208	0x3d403c06	0.046932243
209	0xbd7d3f7d	-0.061828125
210	0xbd9ccf77	-0.07656758
211	0xbe0b93a1	-0.13630535
212	0xbe03bb93	-0.12864523
213	0x3dfe3d40	0.12414026
214	0xbd3ee51d	-0.04660522
215	0x3d38f290	0.0451532
216	0x3d8a0fbe	0.06741284
217	0x3d60950d	0.054829646
218	0xbe04a483	-0.12953381
219	0xbc087325	-0.008328234
220	0x3e103c00	0.14085388
221	0xbdc4d86d	-0.096115924
222	0x3d474fbf	0.048660036
223	0xbdf2bfe4	-0.118530065
224	0x3df31e56	0.118710205
225	0x3c98fbc5	0.01867474
226	0x3e078a80	0.13236427
227	0xbd526266	-0.05136337
228	0xbd4c5101	-0.04988194
229	0xb99a8527	-0.00029472375
230	0x3dc3f7bd	0.09568737
231	0x3c3df70e	0.011594547
232	0xbd6443ea	-0.05572883
233	0x3e005730	0.1253326
234	0x3dce041d	0.10059378
235	0xbdee3510	-0.116312146
236	0x3dda5370	0.10660446
237	0xbd872b35	-0.06600038
238	0xbe193ac3	-0.14963822
239	0x3e1bf4a6	0.15230045
240	0xbd941051	-0.072296746
241	0xbd3d65f2	-0.0462398
242	0x3dad9eee	0.08477579
243	0xbda141ab	-0.07873853
244	0x3d4468f5	0.047951657
245	0xbd19d08b	-0.037552398
246	0xbda3b1b3	-0.07992878
247	0x3bec8d83	0.007219018
248	0x3d02447b	0.03180359
249	0x3e04e28c	0.12977046
250	0x3df2d0d3	0.11856236
251	0x3dfae960	0.12251544
252	0xbe0bfafc	-0.13669962
253	0xbd241651	-0.040060345
254	0xbd89b003	-0.06723025
255	0x3d42cb05	0.047556896

sequential/dense_1/MatMul f4 [4, 16]
0	0xbec6cb34	-0.38826907
1	0xbf06263b	-0.52402085
2	0x3f064fc5	0.5246547
3	0xbd2d9b2d	-0.042384315
4	0xbe89e8e2	-0.26935488
5	0x3db0b7c4	0.086288005
6	0x3e3745bb	0.17897694
7	0xbeb0a1f1	-0.3449855
8	0x3f28b30f	0.6589822
9	0xbef41b89	-0.47677258
10	0x3c9a118a	0.018807191
11	0x3ec9e25e	0.39430517
12	0xbef9230e	-0.48659557
13	0xbf07865c	-0.5293939
14	0x3ef1d27b	0.47230896
15	0x3eaaee9d	0.33385172
16	0xbea93789	-0.33050182
17	0x3f070411	0.5274058
18	0x3de5bbca	0.112174585
19	0x3e9e0e91	0.30870488
20	0xbee0509e	-0.43811506
21	0x3e235348	0.15949738
22	0xbe5bfaf7	-0.21482454
23	0x3e40daa4	0.18833405
24	0xbefe00eb	-0.49610075
25	0xbed828e4	-0.42218697
26	0x3f33a78e	0.70177543
27	0x3f3d1669	0.7386232
28	0xbf08c7a7	-0.53429645
29	0x3ec79c86	0.38986605
30	0xbe413887	-0.1886922
31	0xbee7c716	-0.45269078
32	0x3f02862f	0.50986
33	0x3dd5c207	0.104373984
34	0xbf0a45f1	-0.5401297
35	0x3dca53ed	0.09879289
36	0xbed2822e	-0.41114944
37	0xbe9adfa9	-0.30248764
38	0x3ea8c756	0.3296458
39	0x3f077b8e	0.52922904
40	0xbf104859	-0.56360394
41	0xbcb682bb	-0.022279134
42	0xbe3ea63a	-0.18618098
43	0xbda1b2bf	-0.07895421
44	0xbe85841e	-0.2607736
45	0x3e54c5e5	0.20778616
46	0x3ed4a9ba	0.4153574
47	0xbe86483f	-0.26226994
48	0xbf183c1b	-0.59466714
49	0x3d1a3f72	0.037658162
50	0xbe98155e	-0.29703802
51	0xbec5131d	-0.38491145
52	0x3e761d83	0.24034695
53	0x3eb0158a	0.34391433
54	0xbea21d56	-0.31663007
55	0xbdb13002	-0.08651735
56	0xbec47343	-0.38369188
57	0x3f0cb810	0.5496836
58	0xbee5792a	-0.44819003
59	0xbf0d26f0	-0.5513754
60	0x3a89f08c	0.0010523959
61	0xbf015d7f	-0.5053329
62	0xbefef012	-0.49792534
63	0xbda4b1a4	-0.08041695

sequential/conv2d/Conv2D f4 [8, 3, 3, 1]
0	0xbb165509	-0.0022938868
1	0x3ddccd8c	0.107813925
2	0x3e2cc251	0.16871001
3	0x3f10999d	0.56484395
4	0x3f3a24b6	0.72712266
5	0xbf10fa68	-0.5663209
6	0x3e0545fa	0.13014975
7	0x3f3fd0dc	0.7492807
8	0xbe7c7af6	-0.24656281
9	0x3ebec88b	0.37262377
10	0x3d03d3f1	0.032184545
11	0xbe8bcad5	-0.27303186
12	0x3f036df7	0.5133967
13	0x3ea542f3	0.3227764
14	0xbf29cb00	-0.6632538
15	0xbee11c30	-0.43966818
16	0xbe536494	-0.20643836
17	0xbe9c854e	-0.30570453
18	0x3e0c0508	0.13673794
19	0xbf34d753	-0.7064106
20	0x3f44d212	0.7688304
21	0xbdf518f1	-0.11967648
22	0x3eb8018e	0.35938686
23	0xbcb35d0b	-0.021894952
24	0x3f279292	0.65458024
25	0xbd8c7676	-0.06858532
26	0xbec9808b	-0.39355883
27	0xbebd8cf6	-0.37021607
28	0xbf012692	-0.5044948
29	0xbf066c98	-0.5250945
30	0xbed46567	-0.41483614
31	0xbf150b7e	-0.5822066
32	0xbed689c8	-0.41901994
33	0xbf3b325e	-0.7312373
34	0xbed918d6	-0.4240176
35	0x3f3825ea	0.7193285
36	0xbe70ad84	-0.23503691
37	0x3f1cd5c1	0.6126366
38	0xbf4827aa	-0.7818552
39	0xbf24602e	-0.6420926
40	0xbee0e4e4	-0.4392463
41	0x3f20c85d	0.6280573
42	0x3f6a6c5f	0.9157161
43	0x3ee3c985	0.44489685
44	0xbefedbfd	-0.49777213
45	0xbeccf488	-0.40030313
46	0x3cecfb03	0.028928285
47	0x3ebe2951	0.37140897
48	0x3eb47f5e	0.35253423
49	0x3f85d86f	1.0456675
50	0xbe99a680	-0.30009842
51	0xbf415ec9	-0.75535256
52	0x3e98baaa	0.29829913
53	0x3e7ab3ae	0.24482605
54	0xbbaf7e28	-0.005355615
55	0x3e07d57e	0.13265035
56	0xbc166262	-0.00917873
57	0xbefa0c08	-0.48837304
58	0xbeecb34d	-0.46230546
59	0xbe864ef4	-0.2623211
60	0xbf189cf1	-0.59614474
61	0x3ba00e8b	0.004884546
62	0xbf1d96b4	-0.6155808
63	0xbde2c9d2	-0.110736504
64	0xbe357113	-0.17718916
65	0x3f0153c1	0.50518423
66	0x3e6f08d5	0.23343213
67	0xbef42dda	-0.47691232
68	0xbe6a0141	-0.22852041
69	0xbf11c62c	-0.5694301
70	0xbf2f0988	-0.6837392
71	0x3e9ad8a5	0.30243412

sequential/conv2d_1/Conv2D f4 [16, 3, 3, 8]
0	0x3e8c1120	0.27356815
1	0xbe68c804	-0.2273255
2	0xbe85f131	-0.26160577
3	0xbe8af025	-0.2713634
4	0xbe6c1e39	-0.23058404
5	0x3c5a93e6	0.013340926
6	0x3e8035db	0.25041088
7	0xbe112d7e	-0.1417751
8	0xbe27e3ee	-0.16395542
9	0xbd48d02e	-0.04902666
10	0xbe12e031	-0.14343335
11	0xbe91fd0f	-0.2851338
12	0x3da2185d	0.07914803
13	0x3dc0b666	0.0940979
14	0x3dce65cb	0.10078009
15	0x3e2a0adb	0.16605704
16	0xbe959885	-0.29217926
17	0xbe891b0b	-0.26778445
18	0xbe8b757f	-0.2723808
19	0xbe8b3b50	-0.2719369
20	0x3e901378	0.28139853
21	0xbe2c51dc	-0.16828102
22	0xbdd28260	-0.10278773
23	0xbca53d26	-0.02017076
24	0xbe2069c0	-0.1566534
25	0x3e70f885	0.23532303
26	0xbe0b6863	-0.13614039
27	0x3e489d4c	0.19591254
28	0x3e1b7ce6	0.15184364
29	0xbbc5aa33	-0.006032252
30	0x3deb0fe8	0.11477643
31	0x3e52f306	0.20600519
32	0x3da28d5c	0.079371184
33	0xbe7b5531	-0.24544217
34	0xbe75c9ba	-0.24002734
35	0x3e3f86b2	0.18703726
36	0x3e0d46a2	0.13796476
37	0xbe97e3ca	-0.29665977
38	0x3e164baa	0.14677301
39	0xbe0bc459	-0.1364912
40	0xbe3da216	-0.18518862
41	0x3e105d0b	0.14097993
42	0xbe880d19	-0.26572493
43	0xbda02a87	-0.078206114
44	0x3d090e82	0.0334611
45	0xbe8911bf	-0.26771352
46	0xbd9806e5	-0.0742319
47	0x3c1e6cb0	0.009669468
48	0x3e4455da	0.19173375
49	0x3d57696e	0.05259078
50	0x3e95ee8c	0.2928356
51	0xbe8ba509	-0.2727435
52	0x3e372cee	0.17888233
53	0x3ea7c874	0.3277012
54	0xbe2558f4	-0.16147214
55	0x3e96cbaa	0.29452258
56	0xbc60dae5	-0.0137240635
57	0x3e02c5f3	0.12770824
58	0xbd86a4ce	-0.06574403
59	0x3d532884	0.05155231
60	0x3e29ccfc	0.16582102
61	0x3e510dd6	0.20415434
62	0xbe7f4454	-0.24928409
63	0x3dbeab13	0.093099736
64	0x3e487595	0.19576104
65	0xbcf90c1e	-0.030401286
66	0xbd5505ea	-0.052007593
67	0xbe43bf78	-0.19116008
68	0x3e65d257	0.2244352
69	0x3dcbedf5	0.09957496
70	0xbe848894	-0.2588545
71	0xbe1bca42	-0.15213874
72	0xbe46d29b	-0.19416277
73	0xbd4ded6f	-0.050275262
74	0x3d9c8b87	0.076438
75	0xbdffba95	-0.124867596
76	0xbce2c6c7	-0.027682675
77	0xbde211cd	-0.110385515
78	0x3d128611	0.035772387
79	0xbdd224fb	-0.1026096
80	0xbd4f142b	-0.050556343
81	0xbe0d0958	-0.13773096
82	0xbe596b9d	-0.21232457
83	0xbe7e9b96	-0.24864039
84	0x3e6aa860	0.22915792
85	0xbd80f3d2	-0.06296505
86	0xbdaaa820	-0.083328485
87	0x3e31263a	0.17299739
88	0xbe8d7695	-0.27629533
89	0x3e0d28f9	0.13785161
90	0xbdd4255e	-0.1035869
91	0xbe8dbac2	-0.27681547
92	0x3db367d7	0.0876004
93	0x3e23338c	0.15937632
94	0x3e877738	0.26458144
95	0xbca3b6ff	-0.01998472
96	0xbe54d9e9	-0.20786251
97	0xbd32d81a	-0.04366312
98	0xbdb5d741	-0.08878947
99	0x3c7ebe42	0.015548291
100	0x3e80e042	0.25171095
101	0xbd9b7594	-0.075907856
102	0x3c03c42b	0.008042376
103	0x3e8001ed	0.2500147
104	0xbe11266f	-0.14174818
105	0xbda6ae94	-0.08138767
106	0xbd19ecbf	-0.037579294
107	0xbd9344a7	-0.07190829
108	0xbe297f28	-0.16552413
109	0xbd1f7dbd	-0.038938273
110	0x3dee4745	0.11634687
111	0x3e09d69c	0.13460773
112	0x3e7be4f5	0.24599059
113	0x3e8d3b0a	0.27584106
114	0xbd62478f	-0.055244025
115	0xbe87b2f3	-0.26503715
116	0x3e6d44a6	0.23170719
117	0xbd85fb06	-0.065420195
118	0x3d9e09df	0.077167265
119	0x3e96c905	0.2945024
120	0xbd966bec	-0.07344803
121	0x3db86ac8	0.09004742
122	0xbe133577	-0.14375864
123	0xbe33a3f6	-0.17543015
124	0x3e8588f3	0.26081046
125	0x3e2cc5b8	0.16872299
126	0xbdaede28	-0.08538467
127	0x3dfa69a0	0.122271776
128	0x3e40e7d2	0.18838432
129	0x3df5af93	0.11996379
130	0x3e04fa9b	0.12986223
131	0x3d531cd8	0.05154118
132	0xbd345427	-0.044025566
133	0xbdc3ee93	-0.09566989
134	0xbd29dae5	-0.04146852
135	0x3e1d36f0	0.15352988
136	0x3e025685	0.12728317
137	0xbe067347	-0.13129912
138	0xbb926cb4	-0.004468525
139	0x3e2c68c2	0.16836837
140	0x3e2548cb	0.1614105
141	0xbd7dc02d	-0.06195085
142	0x3df328ad	0.11872993
143	0xbe55fdea	-0.20897642
144	0x3d069ba4	0.032863274
145	0xbe745ab6	-0.23862728
146	0x3e4d796d	0.20065852
147	0xbe31efff	-0.17376707
148	0x3d869832	0.06571998
149	0xbe9b3dd7	-0.30320618
150	0xbe91fb9d	-0.28512278
151	0xbe91824a	-0.28419715
152	0x3e5d2416	0.21595797
153	0x3e8b0ccd	0.27158204
154	0xbe4d3713	-0.2004054
155	0xbe0e3392	-0.1388686
156	0x3da7bd4a	0.08190401
157	0xbd25f0bc	-0.040512785
158	0xbe15046e	-0.14552471
159	0xbe256488	-0.16151631
160	0xbe18de84	-0.14928633
161	0x3e24c126	0.16089305
162	0xbe92d787	-0.2868006
163	0xbd928500	-0.07154274
164	0xbd80670e	-0.06269656
165	0x3da75c17	0.081718616
166	0x3e41785a	0.18893567
167	0xbe065f25	-0.13122232
168	0xbdad97a9	-0.084761925
169	0xbdf60083	-0.12011816
170	0x3e81c3a9	0.2534459
171	0x3e88b090	0.26697206
172	0x3e02e529	0.1278273
173	0x3e02c0aa	0.12768808
174	0x3e035814	0.12826568
175	0xbe698c27	-0.2280737
176	0xbd8b5ae5	-0.06804446
177	0x3dee362e	0.11631428
178	0x3d941ce4	0.07232073
179	0x3e6b39f4	0.22971326
180	0xbe46b806	-0.19406137
181	0xbe909fc8	-0.28246903
182	0x3c7a14d4	0.015263755
183	0xbe44fd05	-0.19237144
184	0x3cf6e278	0.030137286
185	0xbadf9eeb	-0.0017060911
186	0x3d33b797	0.043876257
187	0xbe92ecbe	-0.28696245
188	0xbddce3b9	-0.10785622
189	0x3e376722	0.17910436
190	0xbe88b7df	-0.26702783
191	0x3c3bc3da	0.011460269
192	0xbe2bf492	-0.16792515
193	0xbe4eeee1	-0.20208313
194	0x3e35f70a	0.17770019
195	0xbe204669	-0.1565186
196	0xbd235d17	-0.0398837
197	0x3e2846c7	0.1643325
198	0x3e5fb672	0.21846941
199	0xbd4e9f89	-0.050445113
200	0x3e946cd8	0.2898929
201	0x3e4cf2be	0.20014474
202	0x3e8ea693	0.2786146
203	0x3e1512c4	0.1455794
204	0xbcc6ccc9	-0.024267571
205	0xbe17c707	-0.14822017
206	0xbe4681c6	-0.19385442
207	0xbd9fb67a	-0.077984765
208	0xbe738330	-0.23780513
209	0xbe103aa5	-0.14084871
210	0x3df99019	0.121856876
211	0xbe74d4b6	-0.23909268
212	0x3e628bf2	0.22123697
213	0x3e0468a2	0.12930539
214	0xbe89ecfd	-0.2693862
215	0x3dfc04ae	0.1230558
216	0x3da904fc	0.08252904
217	0xbe644364	-0.22291332
218	0x3e4e23bd	0.2013082
219	0x3d305c37	0.043056693
220	0x3ca5a17a	0.0202186
221	0xbe36bd34	-0.17845613
222	0xbd202927	-0.039101746
223	0x3e76d651	0.24105193
224	0x3e025ea4	0.12731415
225	0xbd20afea	-0.039230265
226	0xbe7e8a62	-0.24857476
227	0xbe20269d	-0.1563973
228	0x3e931070	0.28723478
229	0xbe5116c4	-0.2041884
230	0xbe8811ea	-0.26576167
231	0xbd2a70f8	-0.04161164
232	0xbd15e307	-0.036593463
233	0x3c95a605	0.01826764
234	0xbd297326	-0.04136958
235	0xbdd7c213	-0.105350636
236	0x3d0afaae	0.033930473
237	0xbd02e2a5	-0.031954426
238	0xbe2f8ad4	-0.17142802
239	0x3df3b1ca	0.11899145
240	0x3e903843	0.28167924
241	0x3a6c271e	0.00090085145
242	0x3e5bbb64	0.21458203
243	0x3e4254fb	0.1897773
244	0x3cd79c73	0.026319718
245	0x3ea7aae0	0.32747555
246	0x3e73fcb1	0.23826863
247	0xbe168ce6	-0.14702186
248	0x3e136859	0.14395274
249	0x3e2e8d10	0.17045999
250	0x3df5c1d5	0.11999861
251	0x3d86f5ee	0.06589876
252	0x3e6d8670	0.23195815
253	0x3bee3661	0.007269666
254	0xbe889b1a	-0.26680833
255	0x3e1108fa	0.1416358

sequential/conv2d_2/Conv2D f4 [16, 3, 3, 16]
0	0x3e15e166	0.14636764
1	0xbdc433ac	-0.09580168
2	0xbde31745	-0.11088423
3	0x3daf4ec4	0.08559945
4	0x3de096c2	0.10966255
5	0x3c1d9635	0.009618332
6	0xbdb94ded	-0.09048066
7	0xbd4cb334	-0.04997559
8	0xbd98b0c8	-0.07455593
9	0x3e06e7eb	0.13174407
10	0x3e22aea0	0.15886927
11	0x3d4a66a6	0.0494143
12	0x3e628cf3	0.2212408
13	0xbe08ea18	-0.1337055
14	0x3df2a124	0.118471414
15	0x3e5f2cd8	0.2179445
16	0xbde07c27	-0.1096118
17	0x3da8b58d	0.08237753
18	0x3cedb910	0.029018909
19	0xbdb57602	-0.08860399
20	0x3dec0eaa	0.115262344
21	0x3d854d98	0.065089405
22	0x3e0e8897	0.13919292
23	0xbc08a650	-0.008340433
24	0xbd95a350	-0.0730654
25	0x3a9ae8c9	0.0011818643
26	0xbd50badb	-0.05095945
27	0xbe042a1e	-0.12906691
28	0x38fcb8f9	0.0001205075
29	0xbe3b4bfe	-0.18290707
30	0x3c3f0395	0.011658569
31	0xbd02b58e	-0.031911425
32	0x3d83a567	0.06428032
33	0x3e5541cc	0.20825881
34	0x3d83bc26	0.06432371
35	0x3e52df8a	0.20593086
36	0x3dc39dbc	0.0955157
37	0xbe3a2fe6	-0.18182334
38	0x3dc0183b	0.093796216
39	0xbd703640	-0.058645487
40	0xbdb5c737	-0.08875888
41	0xbe0a3a61	-0.13498832
42	0xbd937333	-0.07199707
43	0x3e4c0c43	0.19926552
44	0x3ce5ddbd	0.028059835
45	0xbdd96a37	-0.10615962
46	0xbc5aec66	-0.013362026
47	0xbcd1f77b	-0.025630703
48	0x3e3296d2	0.17440346
49	0x3dd21b3c	0.10259101
50	0xbd369fd8	-0.044586033
51	0xbbf49d5c	-0.0074650478
52	0x3e1b6796	0.15176234
53	0xbd8fdd60	-0.07024646
54	0x3e06a92e	0.13150474
55	0xbe2e2ca6	-0.1700922
56	0x3e4c2efb	0.19939797
57	0xbe15cb34	-0.14628297
58	0xbe1d04e9	-0.15333904
59	0xbe09d4fa	-0.1346015
60	0x3e23258a	0.15932289
61	0xbc8cf6af	-0.017207472
62	0xbe552f34	-0.20818788
63	0xbce042cc	-0.027375601
64	0x3dba4e90	0.09097016
65	0xbdcfe5d3	-0.10151257
66	0xbe3fbdca	-0.18724743
67	0xbe26728c	-0.16254634
68	0x3df7da52	0.12102188
69	0x3d1c53e1	0.03816593
70	0x3e49da58	0.19712198
71	0x3e1e5825	0.15463312
72	0xbde47872	-0.111557856
73	0xbb9c0fe6	-0.0047626374
74	0x3dea54fd	0.114419915
75	0x3e330cef	0.17485403
76	0x3d5001d4	0.050782993
77	0xbe26902f	-0.16265939
78	0xbdf2e481	-0.1185999
79	0xbdf460d3	-0.1193253
80	0x3c5de964	0.013544414
81	0xbdbdb604	-0.09263232
82	0x38d6abe2	0.00010236331
83	0xbd56db2d	-0.052455116
84	0xbe1943ca	-0.14967266
85	0x3e46194b	0.19345586
86	0xbe36a178	-0.17835033
87	0xbde9c6c3	-0.11414864
88	0x3dbe4e6c	0.092923015
89	0x3e005ee8	0.12536204
90	0xbe455ceb	-0.19273727
91	0x3db7f292	0.089818135
92	0xbd1169a7	-0.03550115
93	0xbdbe6e7d	-0.09298418
94	0x3df5b396	0.11997144
95	0xbbf2064e	-0.0073860055
96	0x3d688294	0.056765154
97	0xbd91f310	-0.071264386
98	0x3ccf0390	0.025270253
99	0x3e275690	0.16341615
100	0x3af20e8a	0.0018467468
101	0x3e1516ea	0.14559522
102	0x3e17e9d4	0.14835292
103	0x3d119afe	0.035548203
104	0x3dae4670	0.08509529
105	0xbd352f70	-0.044234693
106	0x3dc09e96	0.09405248
107	0x3de55f52	0.111998215
108	0x3bdfc203	0.006828548
109	0x3c9f4c9b	0.019445708
110	0x3df7ec1e	0.12105583
111	0x3ca5681f	0.02019125
112	0x3dcebdc1	0.100947864
113	0x3e2c4405	0.16822822
114	0x3d22a2d0	0.03970605
115	0xbdaf5c17	-0.085624866
116	0xbcc297e1	-0.023754062
117	0x3c47ab3a	0.01218682
118	0x3da12a55	0.07869402
119	0x3d82b333	0.06381836
120	0x3e3cd930	0.18442225
121	0xbdb2db2b	-0.08733209
122	0xbe102814	-0.14077789
123	0x3e1910b3	0.14947776
124	0xbb48e99a	-0.0030656816
125	0x3df0df0f	0.11761295
126	0xbdaf599b	-0.08562013
127	0xbdd78b63	-0.10524633
128	0x3e329dc1	0.17442991
129	0xbe41afa6	-0.18914661
130	0x3dc18f4e	0.09451161
131	0x3dce075d	0.10059998
132	0x3c1afde9	0.009459951
133	0x3ba5dc30	0.005061649
134	0xbe240d1e	-0.16020629
135	0xbc8aaea4	-0.016928978
136	0x3d973a00	0.073841095
137	0xbd105126	-0.03523364
138	0xbe0b3491	-0.13594271
139	0x3db78f14	0.08962837
140	0x3c1057c9	0.008809992
141	0xbdf5813b	-0.119875394
142	0x3d4875e9	0.048940573
143	0x3cb39548	0.021921769
144	0x3db6f9f0	0.089343905
145	0xbd5dca8e	-0.05414825
146	0xbe350a94	-0.17679816
147	0xbe04c7aa	-0.12966791
148	0xbe1073b2	-0.14106634
149	0x3e3ed6aa	0.18636575
150	0xbe29b117	-0.1657146
151	0xbe299617	-0.16561161
152	0xbc05a75c	-0.008157577
153	0xbdb773e8	-0.08957654
154	0xbda369e4	-0.079791814
155	0xbd9d9482	-0.07694341
156	0x3cedad3e	0.029013272
157	0x3d8cd7ef	0.068771236
158	0x3e125ce9	0.14293255
159	0xbb9e3c0e	-0.0048289364
160	0xbda2fb7d	-0.07958124
161	0x3e35c163	0.17749552
162	0xbe50ea28	-0.20401824
163	0xbe041a72	-0.12900713
164	0xbe3d8662	-0.18508294
165	0xbcf5feb9	-0.030028688
166	0x3dc3c764	0.09559515
167	0x3e0fa7ad	0.14028807
168	0xbdb132f8	-0.086523
169	0x3d49a0c1	0.049225572
170	0xbd8fe2af	-0.07025658
171	0xbce4231f	-0.027848778
172	0xbd457c82	-0.048214443
173	0x3de33776	0.11094563
174	0x3e528b36	0.20560917
175	0x3d8af0f0	0.067842364
176	0xbd4d45c1	-0.05011535
177	0x3c78486b	0.015153985
178	0xbd4aa332	-0.04947204
179	0x3dd07700	0.101789474
180	0x3d415e7a	0.04720924
181	0xbdbf5425	-0.09342221
182	0x3cea6642	0.028613213
183	0xbc5599bf	-0.013037144
184	0x3bc58da1	0.0060288464
185	0x3caaa000	0.020828247
186	0x3d748a45	0.059702177
187	0x3e889919	0.26679304
188	0x3e85f1e7	0.2616112
189	0xbdfc94db	-0.123330794
190	0x3e4a5dcf	0.19762348
191	0x3e4c0e0a	0.1992723
192	0xbdc5d15d	-0.096590735
193	0xbe240b38	-0.16019905
194	0xbd576a9c	-0.052591905
195	0xbe09c662	-0.13454583
196	0x3e336577	0.17519175
197	0xbe42b868	-0.19015658
198	0xbcd0730b	-0.025445482
199	0xbc8dc80d	-0.017307306
200	0xbd19524c	-0.037432
201	0xbe078603	-0.13234715
202	0x3e555806	0.2083436
203	0xbbbd6c40	-0.0057807267
204	0xbd37b283	-0.044847976
205	0x3e4e35bf	0.2013769
206	0xbe2e884a	-0.17044178
207	0xbc90aeeb	-0.017661532
208	0xbe181d82	-0.14855006
209	0x3d34e609	0.04416469
210	0xbe3c0b33	-0.18363647
211	0xbe42326d	-0.18964548
212	0x3db6c187	0.08923631
213	0x3e41affb	0.18914787
214	0xbe217b43	-0.15769677
215	0x3e1be1bf	0.15222834
216	0xbe369fda	-0.17834416
217	0x3c138903	0.009004834
218	0x3de4d391	0.111731656
219	0x3d8349ac	0.06410536
220	0x3c9d9df1	0.019240351
221	0x3e3ed569	0.18636097
222	0x3dc01b3f	0.09380197
223	0x3cc2373b	0.023707977
224	0x3deb6e1e	0.114956126
225	0x3df6e19c	0.1205475
226	0x3d6fc3f4	0.058536485
227	0x3e587888	0.21139729
228	0xbd904dec	-0.070461124
229	0xbd4e991a	-0.050438978
230	0x3de46173	0.111513995
231	0x3c9bbba5	0.019010374
232	0xbde05d17	-0.109552555
233	0x3d516bbc	0.051128134
234	0x3e0699a1	0.13144542
235	0x3d8ab099	0.067719646
236	0xbbe83f7c	-0.007087646
237	0x3cef63ef	0.029222457
238	0x3d193adc	0.03740965
239	0xbe11d2c2	-0.14240554
240	0xbde4a9f1	-0.11165226
241	0x3e477b9b	0.19480745
242	0x3e2d2a8a	0.16910759
243	0xbc57a05b	-0.01316079
244	0xbdb49975	-0.08818332
245	0x3dc40c1f	0.095726244
246	0x3dd1695e	0.10225175
247	0xbe327dd8	-0.17430818
248	0xbe0237f2	-0.12716654
249	0x3c2803ce	0.010254813
250	0xbd5a1b30	-0.053248584
251	0x3e3c34c1	0.18379499
252	0x3e1c2d9f	0.15251778
253	0x3e16ce44	0.14727122
254	0xba6dd52e	-0.0009072599
255	0xbd0ce77d	-0.034400452
